single_energy_learning/model.pth (torch, 409970 bytes, 17 tensors)

goal f4 [6]
-0.3903777 -1.787074 -0.48257583 -0.6183541 -0.72859746 0.3942276
00000000: 96df c7be d7be e4bf 2e14 f7be 744c 1ebf
00000010: 5d85 3abf 33d8 c93e

conv1.weight f4 [128, 6, 1]
0.16055079 -0.26720876 -0.26727474 -0.2346593 0.24421369 -0.38220075 -0.21811196 0.24178609
0.28485993 0.25018078 0.21470001 -0.3462205 0.026491934 0.13743865 0.35950506 0.3301716
0.29594722 0.15239479 0.28529894 0.3251711 0.18667546 -0.11859689 -0.22815569 0.416494
-0.24664673 -0.2744597 0.36441645 -0.27108952 0.15280539 0.3843792 0.09988149 0.16447183
0.31318495 0.22654389 -0.032486007 0.18540281 -0.27746177 -0.09171096 -0.37747183 0.34411144
0.1826595 -0.0715715 -0.022237184 0.3091005 -0.15577377 -0.059601042 0.1345572 0.27201402
0.09055313 -0.19359587 0.15452407 0.11378761 -0.3382327 0.084476195 0.37420246 -0.2195871
0.26306203 -0.15950446 0.008087658 -0.12218318 0.11497954 -0.2503905 0.019783339 -0.19507961
0.29169327 0.34853908 0.38593322 -0.15214798 0.22807519 0.25499898 0.052822236 0.12639667
0.07290273 0.21440902 0.27384427 0.10244438 0.21319136 0.030629493 -0.40772155 -0.307041
-0.22272779 0.22629884 0.064617254 -0.2738644 0.13023886 -0.33577526 -0.07798082 0.23484336
0.29125357 0.07540118 0.35151437 -0.24955347 -0.06925205 0.02789892 0.04733429 -0.27691633
-0.05158203 -0.30367488 0.31499016 -0.22535017 0.37896135 -0.023955729 0.38522103 -0.3133511
-0.37259606 0.3835991 0.24896407 -0.2051883 0.2571348 -0.22475359 -0.348855 -0.014036837
-0.22869942 -0.26995486 0.3265724 -0.2191447 0.004536205 0.32329112 -0.18413712 -0.27447802
-0.20492522 0.05632219 -0.0041909534 -0.3728651 -0.3396004 -0.2520586 -0.06349028 0.124977395
0.33881292 -0.10841541 0.0025122222 0.17968303 0.10644573 0.04949368 0.034904025 -0.065501705
0.30895832 -0.039301533 -0.20608996 0.11559883 0.4084036 0.07833172 -0.10008251 -0.23685732
-0.084700175 0.1260708 0.23032184 0.08614352 0.27257627 -0.31243464 0.015918605 -0.2720686
0.049171478 0.2688489 -0.353507 0.3951763 0.21962272 -0.26369905 0.24571294 0.07966809
0.17233698 -0.37276766 0.088790685 0.2982311 0.29537264 0.3822224 0.22028103 -0.29325724
-0.34913075 -0.2576644 0.39629385 -0.0815509 -0.27369633 0.42300668 -0.2203768 -0.06389946
0.3007426 -0.3161071 -0.37137496 -0.22814809 0.1961603 0.17089804 -0.072897725 -0.38176718
0.14194146 0.22649202 -0.39173722 0.26415867 0.36887997 0.396742 -0.28522745 -0.21301658
-0.10593707 -0.10810587 0.08285086 -0.16051732 0.0090050865 0.33175862 0.3728359 -0.14994611
-0.013147159 0.29602215 0.115048446 0.15581729 0.23708607 0.18363947 0.24743423 0.16677673
-0.051020764 -0.17449637 0.010264539 0.37304646 -0.17182703 0.007832109 -0.29557678 0.33487868
0.33024028 -0.23765972 -0.41198856 -0.13960579 0.21008661 0.07482988 -0.2999451 -0.32663575
-0.24747086 -0.20207736 0.38026452 -0.32481584 0.1522235 -0.29161975 -0.3813859 0.09095011
-0.015320745 -0.39054927 0.0055340035 -0.3774536 -0.32489476 0.097180046 -0.36444896 0.047876846
-0.16842318 0.3557129 -0.18436444 0.31045493 -0.04335114 0.29139453 0.032646794 0.24661046
0.3075762 -0.2210291 -0.13472542 -0.21208827 -0.40159076 0.38720813 0.23278396 -0.36622906
00000000: 6d67 243e 96cf 88be 3cd8 88be 874a 70be
00000010: 2713 7a3e d1af c3be be58 5fbe c696 773e
00000020: 29d9 913e b217 803e 52da 5b3e d043 b1be
00000030: 9d05 d93c b8bc 0c3e 0c11 b83e 410c a93e
00000040: 6586 973e 610d 1c3e b412 923e d47c a63e
00000050: da27 3f3e ede2 f2bd a5a1 69be b43e d53e
00000060: f690 7cbe fb85 8cbe cb94 ba3e 3fcc 8abe
00000070: 0479 1c3e 5acd c43e ab8e cc3d 4e6b 283e
00000080: c759 a03e 1ffb 673e 0c10 05bd 3cda 3d3e
00000090: 780f 8ebe f5d2 bbbd fd43 c1be 602f b03e
000000a0: 180b 3b3e 1494 92bd c12a b6bc 6c42 9e3e
000000b0: 2983 1fbe 3920 74bd 5dc9 093e 6c45 8b3e
000000c0: eb73 b93d ff3d 46be 8f3b 1e3e 7a09 e93d
000000d0: d62c adbe db01 ad3d 7797 bf3e 71db 60be
000000e0: 11b0 863e 2355 23be 1982 043c 2d3b fabd
000000f0: 657a eb3d 2f33 80be ab10 a23c f3c2 47be
00000100: d258 953e b773 b23e 0a99 c53e aecc 1bbe
00000110: 8b8c 693e 3a8f 823e 215c 583d 216e 013e
00000120: 074e 953d 0a8e 5b3e 5135 8c3e 5cce d13d
00000130: d64e 5a3e b4ea fa3c e1c0 d0be 7a34 9dbe
00000140: c112 64be e2ba 673e 0d56 843d f437 8cbe
00000150: 565d 053e bcea abbe 68b4 9fbd c77a 703e
00000160: 301f 953e ef6b 9a3d b1f9 b33e f28a 7fbe
00000170: 05d4 8dbd 478c e43c 9ae1 413d fac7 8dbe
00000180: ae47 53bd 467b 9bbe 6446 a13e 32c2 66be
00000190: 3907 c23e ce3e c4bc b13b c53e 8e6f a0be
000001a0: e9c4 bebe 1a67 c43e 70f0 7e3e e21c 52be
000001b0: 2ca7 833e ce25 66be 1f9d b2be c3fa 65bc
000001c0: 2e30 6abe 8637 8abe 7f34 a73e 7867 60be
000001d0: 72a4 943b 6a86 a53e 718e 3cbe 6288 8cbe
000001e0: ebd7 51be 19b2 663d 4454 89bb 2de8 bebe
000001f0: 1be0 adbe d30d 81be 3107 82bd 26f4 ff3d
00000200: e378 ad3e e608 debd 18a4 243b d4fe 373e
00000210: 3800 da3d e3b9 4a3d 86f7 0e3d c225 86bd
00000220: c92f 9e3e a5fa 20bd 3f09 53be 14bf ec3d
00000230: 471a d13e 616c a03d 0ff8 ccbd ba8a 72be
00000240: 4977 adbd b418 013e 7dd9 6b3e 046c b03d
00000250: 1e8f 8b3e 6ff7 9fbe bc67 823c 934c 8bbe
00000260: 0868 493d 90a6 893e dffe b4be 8c54 ca3e
00000270: c7e4 603e 9003 87be 2c9c 7b3e 0629 a33d
00000280: 1b79 303e 67db bebe e4d7 b53d bfb1 983e
00000290: 153b 973e a8b2 c33e 5a91 613e d025 96be
000002a0: 44c1 b2be 97ec 83be 07e7 ca3e 2904 a7bd
000002b0: ed21 8cbe 5594 d83e 75aa 61be b8dd 82bd
000002c0: effa 993e cad8 a1be dc24 bebe a79f 69be
000002d0: 3fde 483e e5ff 2e3e 674b 95bd fd76 c3be
000002e0: 1a59 113e 86ed 673e c891 c8be ce3f 873e
000002f0: d6dd bc3e c421 cb3e 5509 92be 0521 5abe
00000300: 89f5 d8bd 9c66 ddbd b6ad a93d a75e 24be
00000310: 128a 133c 44dc a93e 59e4 be3e 798b 19be
00000320: 2e67 57bc 3790 973e 859e eb3d 918e 1f3e
00000330: b1c6 723e fc0b 3c3e 665f 7d3e 85c7 2a3e
00000340: 26fb 50bd 2daf 32be 992c 283c f2ff be3e
00000350: 6df3 2fbe 3f52 003c d755 97be 3875 ab3e
00000360: 4115 a93e 125d 73be 2af0 d2be d2f4 0ebe
00000370: f220 573e 6840 993d 6792 99be cd3c a7be
00000380: 0069 7dbe 5eed 4ebe 08b2 c23e 434e a6be
00000390: 7ae0 1b3e 2f4f 95be 0345 c3be 0d44 ba3d
000003a0: dd03 7bbc 13f6 c7be 9656 b53b 9941 c1be
000003b0: 9b58 a6be 5506 c73d 0e99 babe 831a 443d
000003c0: 2077 2cbe 0020 b63e 08ca 3cbe f3f3 9e3e
000003d0: f790 31bd aa31 953e a5b8 053d 7487 7c3e
000003e0: a17a 9d3e 7455 62be 76f5 09be ab2d 59be
000003f0: 4e9d cdbe 2540 c63e eb5e 6e3e 6082 bbbe

conv1.bias f4 [128]
-0.21310627 -0.076481394 0.14278091 -0.3779058 0.23012197 0.21953206 0.25451532 0.37362364
0.15824543 0.2874379 -0.033331588 0.06785426 0.274983 -0.2864623 0.33349642 0.028595148
-0.013452235 -0.3141484 -0.21088406 -0.2174354 -0.029958785 -0.04485418 -0.14155915 -0.31810957
-0.19551428 -0.17895019 -0.060311154 -0.041401062 -0.14216487 0.21563858 0.15782952 0.28826532
-0.16676377 0.38796327 0.031845402 0.1464046 0.36745623 0.022722917 -0.26535678 0.41204977
-0.0035492268 0.31165498 0.24031456 -0.22258958 -0.07376543 -0.12043896 -0.3778115 0.38859913
0.2166689 0.26105258 -0.19729161 -0.13153546 -0.25482503 0.00788809 0.021972215 -0.18993135
-0.041183937 -0.007244881 -0.012323952 -0.3798183 0.27309948 -0.004230771 -0.09660759 0.25065514
-0.4077197 0.019305013 -0.13149437 0.018340526 0.06718649 -0.24920161 0.06699517 -0.31152374
0.1405912 0.17989993 0.03461501 -0.0103752455 0.2251629 -0.023695743 -0.2679865 -0.021827485
-0.14932981 -0.26534116 -0.13788186 -0.113858745 0.25324854 -0.16107811 -0.0043900292 -0.40914708
-0.19894189 0.29928687 0.06741225 -0.24571265 -0.15145537 0.32359433 0.38980916 0.22506875
0.11971936 -0.39295477 0.29850903 0.20805134 -0.099202394 0.13279167 0.14101972 -0.12489764
0.10566575 -0.24643657 -0.3111837 -0.12930194 0.31384397 0.103822865 0.3680978 0.18519671
-0.26176423 -0.024593437 -0.12623574 0.33395943 -0.18619676 -0.07545388 -0.30258265 -0.3485895
0.39028758 0.1254774 0.29099488 0.02973744 -0.3354028 0.23769525 -0.029699069 0.3681349
00000000: 8838 5abe 47a2 9cbd 2935 123e de7c c1be
00000010: 18a5 6b3e 03cd 603e d54f 823e 994b bf3e
00000020: 170b 223e 0f2b 933e b486 08bd 2df7 8a3d
00000030: 92ca 8c3e 30ab 92be 0bc0 aa3e 5f40 ea3c
00000040: c366 5cbc 0fd8 a0be fef1 57be 63a7 5ebe
00000050: 206c f5bc 04b9 37bd e2f4 10be 42df a2be
00000060: e534 48be b83e 37be d408 77bd 2994 29bd
00000070: ab93 11be 5cd0 5c3e 109e 213e 8397 933e
00000080: 1fc4 2abe 1fa3 c63e 5370 023d 16eb 153e
00000090: 3923 bc3e 6925 ba3c d8dc 87be 30f8 d23e
000000a0: 259a 68bb 3e91 9f3e 0515 763e 86ee 63be
000000b0: 5412 97bd b4a8 f6bd 8270 c1be 77f6 c63e
000000c0: 74de 5d3e afa8 853e d006 4abe 3bb1 06be
000000d0: 6d78 82be 0c3d 013c 13ff b33c 5d7d 42be
000000e0: 7db0 28bd 7766 edbb 67ea 49bc 8b77 c2be
000000f0: b2d3 8b3e 48a2 8abb 33da c5bd df55 803e
00000100: a3c0 d0be 8c25 9e3c 76a6 06be df3e 963c
00000110: 1299 893d b52e 7fbe c434 893d 0a80 9fbe
00000120: 24f7 0f3e b037 383e 78c8 0d3d effc 29bc
00000130: 1a91 663e 931d c2bc 8735 89be 8ecf b2bc
00000140: eae9 18be ccda 87be e730 0dbe c62e e9bd
00000150: cba9 813e a9f1 24be 3cda 8fbb ba7b d1be
00000160: 6cb7 4bbe 213c 993e 6f0f 8a3d 199c 7bbe
00000170: 1e17 1bbe 28ae a53e 1195 c73e 6c78 663e
00000180: 6c2f f53d 5e31 c9be 2dd6 983e 690b 553e
00000190: a02a cbbd 8afa 073e 7967 103e 55ca ffbd
000001a0: 4967 d83d de59 7cbe 7853 9fbe ba67 04be
000001b0: 28b0 a03e 15a1 d43d 5177 bc3e 35a4 3d3e
000001c0: f605 86be 2d78 c9bc f143 01be bbfc aa3e
000001d0: 5daa 3ebe 9087 9abd 1dec 9abe 537a b2be
000001e0: c6d3 c73e 267d 003e 48fd 943e ef9b f33c
000001f0: eab9 abbe 6266 733e 764b f3bc 2d7c bc3e

conv2.weight f4 [6, 128, 1]
0.07834468 0.053969063 -0.07879758 -0.07036874 0.078722976 0.044614628 0.06083549 0.04338554
-0.03291034 0.027851814 -0.053687766 0.019653374 0.017623516 -0.06761149 -0.039303847 0.011292604
-0.057996098 0.0054946593 -0.0038408919 0.049054198 -0.043925446 0.06255337 -0.073430315 -0.04192108
-0.033907797 0.037719768 -0.04857604 -0.060367648 -0.009721833 -0.01372734 0.016836891 -0.05936902
-0.07805581 -0.013845405 -0.032822184 -0.0047932933 -0.0042999163 -0.08615458 0.039408024 0.063092925
0.019414391 0.037243932 0.019956259 0.082593605 -0.02036357 -0.049144898 0.058607906 0.02997521
0.016843405 -0.083833285 -0.06339984 0.038949437 -0.040271983 0.08166 -0.01603312 0.00762973
0.07763663 0.014522214 -0.046854675 -0.061475754 -0.064301945 0.028971557 0.038145166 -0.005507924
0.061316498 -0.0067109885 -0.031175233 0.08362657 -0.08082274 0.078709245 0.054624703 0.020642081
0.012940879 -0.065432675 0.021758374 0.03335196 0.050993826 -0.0733999 0.047179993 -0.07561581
-0.004411637 -0.08789915 -0.03177091 0.03372448 0.037613086 -0.076798044 -0.031504072 -0.042221818
0.05569917 -0.056801185 -0.0014988297 0.07801833 0.0021441628 0.04611584 0.00533276 -0.052679587
0.028893244 -0.033559877 0.04828467 -0.040315107 -0.08059988 -0.077406965 -0.0052266307 -0.0349046
0.05615054 -0.06500163 0.0050229556 0.030290505 0.04881511 0.038829118 -0.034825247 0.054180797
-0.022720596 -0.039434396 -0.0039647357 0.046106353 -0.012395632 0.002051846 0.028168336 0.05782141
-0.057008076 -0.056848634 -0.07585307 0.030781144 0.056500405 0.07993702 0.08392185 -0.04190521
0.070464745 0.04952722 0.025643822 0.024461433 0.0506192 -0.015648175 -0.09069047 0.05831561
-0.015898705 0.07460151 0.048425235 -0.064765446 -0.06849405 0.049164135 0.041615173 -0.059697125
0.029614238 0.033016942 -0.04817893 -0.049818717 0.07557894 0.09163409 -0.0043823854 -0.0032867077
-0.0864049 -0.07874994 -0.023567755 0.06953373 -0.043668557 -0.015047649 0.06189602 -0.036369316
-0.09058533 -0.05543147 -0.083862215 -0.029759493 0.007879444 -0.0035165143 0.07503306 -0.07298711
0.06312568 0.05349274 -0.0599711 0.008653177 0.05776201 0.008416221 -0.078474276 -0.07452695
-0.07436398 0.034821652 -0.085635744 0.037516013 -0.012983744 0.03865946 -0.040689763 -0.06561551
0.07853604 -0.0021676237 -0.022624768 -0.03516673 -0.05555347 0.07338218 0.09024986 0.07053557
-0.030663118 0.045983024 -0.022839066 0.04457555 -0.085106604 0.06311737 -0.078808635 -0.076812625
-0.013229245 0.05216728 -0.023631895 0.06005891 0.03966205 0.07678902 -0.04011708 0.05422266
0.039343562 -0.031641178 -0.08757185 0.015696438 -0.062201023 0.018806469 0.07421759 -0.050028533
-0.020055002 -0.0068095396 0.066658184 -0.060753956 0.05676256 -0.042331338 -0.021510927 -0.049224615
-0.0022338047 0.06356096 -0.079772286 0.07135365 0.07419358 0.033253305 0.022532247 -0.08331067
0.074652456 -0.048331313 0.052769016 0.0237788 -0.07561178 0.06368612 -0.06415488 -0.04926184
-0.012769844 -0.08122398 -0.00937863 -0.009235664 0.062020592 0.050509002 0.017708706 -0.058836408
0.0023710763 0.08382899 0.059505038 0.015645232 -0.04238359 0.09057535 -0.08198881 0.011685417
00000000: 2d73 a03d aa0e 5d3d a060 a1bd 7c1d 90bd
00000010: 8339 a13d d4bd 363d a22e 793d 09b5 313d
00000020: fecc 06bd 7d29 e43c b4e7 5bbd 1d00 a13c
00000030: 315f 903c e577 8abd 12fd 20bd 9d04 393c
00000040: 518d 6dbd 8b0c b43b 79b7 7bbb 0eed 483d
00000050: 2beb 33bd fb1b 803d a262 96bd 70b5 2bbd
00000060: e7e2 0abd 0b80 1a3d abf7 46bd 1144 77bd
00000070: 5348 1fbc a3e8 60bc 85ed 893c ee2c 73bd
00000080: b9db 9fbd d6d7 62bc 8e70 06bd 0f11 9dbb
00000090: 50e6 8cbb d071 b0bd 4f6a 213d dd36 813d
000000a0: ee0a 9f3c 188d 183d 4f7b a33c d626 a93d
000000b0: 80d1 a6bc 294c 49bd d80e 703d 928e f53c
000000c0: 2efb 893c c9b0 abbd c6d7 81bd 7289 1f3d
000000d0: 3cf4 24bd 5c3d a73d e457 83bc d002 fa3b
000000e0: f4ff 9e3d 95ee 6d3c b0ea 3fbd 00ce 7bbd
000000f0: bdb0 83bd c255 ed3c 1b3e 1c3d d17b b4bb
00000100: 0227 7b3d dae7 dbbb 3463 ffbc 6844 ab3d
00000110: 6586 a5bd 5032 a13d 27be 5f3d 9519 a93c
00000120: fb05 543c 9101 86bd 9e3e b23c 119c 083d
00000130: e7de 503d b052 96bd cf3f 413d 76dc 9abd
00000140: 7e8f 90bb 7804 b4bd 3722 02bd ae22 0a3d
00000150: 2e10 1a3d 4b48 9dbd 6a0a 01bd c9f0 2cbd
00000160: d024 643d 5ca8 68bd 6174 c4ba 13c8 9f3d
00000170: 1585 0c3b f7e3 3c3d 6fbe ae3b 8dc6 57bd
00000180: 86b1 ec3c 1576 09bd 25c6 453d 7421 25bd
00000190: 8d11 a5bd 8b87 9ebd 2844 abbb 20f8 0ebd
000001a0: 1cfe 653d 931f 85bd 9b97 a43b cb23 f83c
000001b0: 5af2 473d 480b 1f3d eba4 0ebd afec 5d3d
000001c0: 8b20 babc f685 21bd 9dea 81bb 04da 3c3d
000001d0: 0d17 4bbc 4378 063b 48c1 e63c 25d6 6c3d
000001e0: 4d81 69bd 1dda 68bd db58 9bbd bd28 fc3c
000001f0: f86c 673d 05b6 a33d 38df ab3d cca4 2bbd
00000200: d24f 903d 0edd 4a3d fe12 d23c 5863 c83c
00000210: 1456 4f3d 9a30 80bc edbb b9bd 59dc 6e3d
00000220: 003e 82bc adc8 983d 8a59 463d bfa3 84bd
00000230: 9c46 8cbd 5560 493d ac74 2a3d f984 74bd
00000240: 8f99 f23c c63c 073d 4557 45bd b60e 4cbd
00000250: 22c9 9a3d a7aa bb3d 1d9a 8fbb ce65 57bb
00000260: 0df5 b0bd a647 a1bd 2a11 c1bc b367 8e3d
00000270: cddd 32bd 6a8a 76bc ae86 7d3d fef7 14bd
00000280: cd84 b9bd 1c0c 63bd f4bf abbd 2eca f3bc
00000290: c918 013c 5275 66bb efaa 993d 447a 95bd
000002a0: 0948 813d 341b 5b3d 42a4 75bd 0ec6 0d3c
000002b0: db97 6c3d 30e4 093c 1fb7 a0bd 96a1 98bd
000002c0: 244c 98bd 26a1 0e3d cb61 afbd 64aa 193d
000002d0: c5b9 54bc 6259 1e3d 4faa 26bd 6d61 86bd
000002e0: 81d7 a03d b10e 0ebb 9457 b9bc fd0a 10bd
000002f0: 098c 63bd 6549 963d ebd4 b83d f474 903d
00000300: 3831 fbbc b258 3c3d fe18 bbbc da94 363d
00000310: 5f4c aebd ae43 813d 6c66 a1bd f04f 9dbd
00000320: 7abf 58bc 5cad 553d ad97 c1bc 5500 763d
00000330: ac74 223d 9043 9d3d cf51 24bd 9418 5e3d
00000340: b726 213d 2e9a 01bd df58 b3bd d195 803c
00000350: 80c6 7ebd 0610 9a3c 64ff 973d b8ea 4cbd
00000360: 634a a4bc 8f22 dfbb 1684 883d 24d9 78bd
00000370: dc7f 683d a063 2dbd af37 b0bc c09f 49bd
00000380: 0665 12bb 402c 823d a75f a3bd dd21 923d
00000390: cef2 973d 9e34 083d 8c95 b83c c99e aabd
000003a0: 63e3 983d 0ef7 45bd 5324 583d c2cb c23c
000003b0: 59da 9abd de6d 823d a263 83bd c8c6 49bd
000003c0: 9c38 51bc c258 a6bd d3a8 19bc 2f51 17bc
000003d0: 4e09 7e3d 87e2 4e3d d911 913c 72fe 70bd
000003e0: 0f64 1b3b 89ae ab3d 8ebb 733d 6e2a 803c
000003f0: 6a9a 2dbd 927f b93d c0e9 a7bd 3174 3f3c

conv2.bias f4 [6]
0.073586755 -0.0840965 -0.028075013 -0.0124851735 0.002363862 0.08304421
00000000: a7b4 963d c93a acbd 92fd e5bc 9d8e 4cbc
00000010: 06eb 1a3b 1513 aa3d

encoder.self_attn.in_proj_weight f4 [384, 128]
0.043140527 -0.026154926 0.03166233 0.022404691 -0.03561676 0.104146235 -0.057403162 -0.03749057
-0.031530414 -0.028432338 0.021630354 -0.09734875 -0.00051783246 -0.078785114 0.077385895 -0.091046914
-0.072207645 -0.08251515 0.08741604 -0.030244332 -0.02278757 -0.02721624 -0.09227156 0.060875222
0.08013656 0.069910355 -0.019302985 -0.040635873 0.10236232 0.0715826 0.057113435 -0.009427175
0.037573803 0.0037054904 -0.026538808 0.06384028 -0.054189738 -0.051886592 -0.10693174 -0.07527036
0.09726704 0.028587801 -0.025706163 0.10299163 0.11082587 -0.10196841 -0.014545459 0.006012537
0.049204085 -0.09657429 0.10216517 -0.050932474 -0.0888424 -0.056282964 0.0251704 0.09709372
0.08030725 -0.017466009 0.016477788 -0.110371634 0.09273202 0.026356965 -0.0042245616 0.07429514
0.008766458 -0.08736826 0.029658569 -0.097981215 -0.08626517 -0.036982283 0.09885913 -0.06835101
0.05410054 -0.09456338 0.050853852 -0.050721787 -0.059430778 -0.11435169 -0.001620969 0.016919231
0.0744139 0.0759253 0.0721874 0.11174536 -0.083183795 0.044462144 0.059771866 -0.09590078
-0.034981236 -0.031520832 -0.06925219 -0.12744 -0.04369719 -0.00875616 0.057366412 0.051301
0.10209618 -0.034460414 0.019340867 0.075366266 -0.09394233 0.053528756 0.11817741 -0.043556172
0.10700882 0.09249326 -0.11828337 0.0022856994 -0.065716594 -0.0024737169 -0.065525584 -0.0152214
0.036470167 -0.11323489 0.0850809 0.009087221 -0.046987012 0.036912654 0.057267368 -0.10026024
0.10383985 0.09319626 -0.10077963 0.10074399 0.021778096 -0.0012207669 -0.07320187 -0.0418044
-0.011711405 -0.034157377 0.052331444 0.13298444 -0.06833401 -0.11804659 -0.003903099 -0.084781416
0.09644416 0.047498323 -0.054406583 -0.09665186 0.09734841 -0.10388418 -0.09435004 -0.049195386
-0.10358283 0.08764112 -0.027103152 0.12968837 0.08014521 -0.017912943 0.027113652 -0.09209286
0.07377785 -0.04815827 -0.09015157 0.037025284 0.06316417 -0.033079967 0.08990233 -0.025536498
-0.025265628 0.063654125 -0.085876755 -0.039082687 0.01061778 -0.0665734 0.059171088 -0.09733744
-0.11136535 -0.087738104 0.090998635 -0.05916071 0.09975873 0.093203 0.07938753 0.06604726
0.11512283 -0.06079874 0.08986519 -0.06938375 0.040676832 -0.07340242 0.036521792 0.006441134
-0.032156907 -0.03520776 -0.09428525 0.07339559 -0.10250767 0.007742264 -0.09699816 -0.048898865
-0.058547273 0.07136787 -0.024857698 0.019022293 -0.032561734 0.040253844 -0.118757956 0.02028828
0.09368349 -0.06854375 0.058330316 0.09273632 0.09235364 -0.10465175 -0.065411225 0.057975095
-0.06273535 0.11971307 0.03404557 0.06354747 -0.0096669365 0.064097986 -0.08969607 0.007886125
0.044961907 -0.020657703 0.10117021 0.13768442 -0.06426365 0.046621192 0.023301493 -0.09615993
-0.010376529 0.006714786 0.03743403 0.0034738553 0.07048921 0.006011729 -0.08352165 0.06996784
0.065594785 0.057534687 0.0905494 -0.08146822 -0.1354443 -0.095117435 -0.1380824 -0.08463491
0.049504414 0.11698047 -0.040379178 0.11014002 -0.03764524 -0.10101709 0.07756567 0.067825474
-0.15558931 0.04718575 0.11353908 -0.024423085 0.027675254 0.0031312006 -0.04485091 0.024990553
00000000: 1fb4 303d db42 d6bc 5cb0 013d 0b8a b73c
00000010: e1e2 11bd 9f4a d53d 941f 6bbd b68f 19bd
00000020: 0926 01bd efea e8bc 2432 b13c c85e c7bd
00000030: 26bf 07ba 175a a1bd 7f7c 9e3d ce76 babd
00000040: 9ae1 93bd b4fd a8bd 2e07 b33d f6c2 f7bc
00000050: ffac babc 98f4 debc dff8 bcbd 4c58 793d
00000060: a31e a43d 292d 8f3d 4b21 9ebc cd71 26bd
00000070: 56a3 d13d e699 923d c7ef 693d 7074 1abc
00000080: fde6 193d d0d7 723b ea67 d9bc b1be 823d
00000090: 0ff6 5dbd 0987 54bd 07ff dabd 5927 9abd
000000a0: f133 c73d f730 ea3c bb95 d2bc 47ed d23d
000000b0: acf8 e23d d0d4 d0bd 1450 6ebc d104 c53b
000000c0: 398a 493d bec8 c5bd f93b d13d 929e 50bd
000000d0: 01f3 b5bd f788 66bd 2832 ce3c 13d9 c63d
000000e0: 2178 a43d e014 8fbc 6dfc 863c 860a e2bd
000000f0: 49ea bd3d 90ea d73c 316e 8abb 0d28 983d
00000100: 31a1 0f3c 21ee b2bd 87f6 f23c 60aa c8bd
00000110: cbab b0bd bc7a 17bd a876 ca3d 9dfb 8bbd
00000120: 8798 5d3d 72aa c1bd 214c 503d a6c1 4fbd
00000130: b06d 73bd 3831 eabd b276 d4ba 339a 8a3c
00000140: 5166 983d b97e 9b3d fdd6 933d c0da e43d
00000150: 445c aabd f01d 363d 58d3 743d a167 c4bd
00000160: 7c48 0fbd fd1b 01bd 18d4 8dbd a27f 02be
00000170: d3fb 32bd ff75 0fbc 0bf9 6a3d ff20 523d
00000180: cd17 d13d 5d26 0dbd bd70 9e3c a159 9a3d
00000190: d664 c0bd f840 5b3d ff06 f23d f567 32bd
000001a0: 7127 db3d 1b6d bd3d 8d3e f2bd accb 153b
000001b0: 6c96 86bd 151e 22bb 4732 86bd 2e63 79bc
000001c0: be61 153d b2e7 e7bd e53e ae3d 91e2 143c
000001d0: 7475 40bd b931 173d 3091 6a3d 3e55 cdbd
000001e0: fda9 d43d aedd be3d 8d65 cebd dd52 ce3d
000001f0: fa67 b23c 2402 a0ba ddea 95bd 173b 2bbd
00000200: 31e1 3fbc 9be8 0bbd 7f59 563d 132d 083e
00000210: b4f2 8bbd 69c2 f1bd 23cb 7fbb e1a1 adbd
00000220: 8484 c53d 9a8d 423d 70d9 5ebd 69f1 c5bd
00000230: 9a5e c73d 3bc1 d4bd 983a c1bd 1a81 49bd
00000240: 3c23 d4bd 307d b33d 6e07 debc 07cd 043e
00000250: 2c23 a43d 2abe 92bc 731d de3c 2e9b bcbd
00000260: d718 973d 9b41 45bd 63a1 b8bd d3a7 173d
00000270: 375c 813d dc7e 07bd b61e b83d eb31 d1bc
00000280: ddf9 cebc 185d 823d 27e0 afbd 2b15 20bd
00000290: 32f6 2d3c a257 88bd 625d 723d da58 c7bd
000002a0: 8413 e4bd 09b0 b3bd 7e5d ba3d 8052 72bd
000002b0: 4e4e cc3d 37e1 be3d ee95 a23d c943 873d
000002c0: 85c5 eb3d 1908 79bd 3e0b b83d 1119 8ebd
000002d0: c09c 263d 0254 96bd e097 153d 2610 d33b
000002e0: f6b6 03bd 0336 10bd a018 c1bd 6d50 963d
000002f0: 8bef d1bd d1b2 fd3b f9a6 c6bd 2d4a 48bd
00000300: 44cf 6fbd 5129 923d 5fa2 cbbc a4d4 9b3c
00000310: 745f 05bd 37e1 243d 5f37 f3bd 9b33 a63c
00000320: 21dd bf3d aa60 8cbd c5eb 6e3d 8aec bd3d
00000330: e823 bd3d a853 d6bd 52f6 85bd 4b77 6d3d
00000340: 647b 80bd 202c f53d 5e73 0b3d 2d25 823d
00000350: 1262 1ebc ce45 833d 93b2 b7bd ce34 013c
00000360: fa29 383d 583a a9bc 5432 cf3d 25fd 0c3e
00000370: a99c 83bd ddf5 3e3d c6e2 be3c 7fef c4bd
00000380: 5102 2abc b507 dc3b 6d54 193d 9fa9 633b
00000390: a65c 903d 0afe c43b 660d abbd 4d4b 8f3d
000003a0: 8f56 863d 7ea9 6b3d f771 b93d cfd8 a6bd
000003b0: e9b1 0abe eecc c2bd 7965 0dbe 1155 adbd
000003c0: 24c5 4a3d 7593 ef3d a364 25bd 1791 e13d
000003d0: e531 1abd 0ce2 cebd c0da 9e3d 15e8 8a3d
000003e0: ce52 1fbe d845 413d 2d87 e83d ec12 c8bc
000003f0: 37b7 e23c d434 4d3b 96b5 37bd fdb8 cc3c

encoder.self_attn.in_proj_bias f4 [384]
0.014476641 -0.00659667 -0.01768289 0.013854846 -0.007374037 -0.016860826 -0.010075913 -0.010864922
-0.033319596 -0.0097928895 0.0010211616 0.01160288 0.0086240405 -0.007548365 0.0053260433 0.017022891
0.00924351 0.009845419 0.009438496 0.008786905 0.005714724 0.011026761 -0.0056455694 0.0056105787
-0.0022127726 0.0052718017 -0.0064545805 0.014151296 -0.011171047 -0.0048002508 0.005043778 -0.00080206926
0.005236871 -0.0061761155 -0.0053430134 0.0029863033 0.0010604141 -0.0054672393 0.0019173895 0.0077513233
0.0059460625 -0.0003147898 -0.0043007387 0.0056149918 -0.0016331852 0.0010662155 0.0060995733 -0.0057143513
-0.009090027 -0.011631818 -0.017017508 0.025587332 -0.020833695 -0.0017099609 -0.0092252195 -0.0040368773
-0.00029044997 -0.010301126 0.0029013315 -0.015003477 -0.00080503064 -0.001940496 0.003298016 -0.011707736
-0.010753877 0.00785616 -0.00038835977 -0.0051603625 -0.00016356139 0.009659581 0.020173753 0.013179897
-0.0030578328 0.032148927 -0.0009766835 -0.0024383203 -0.011652487 0.006241849 -0.020379556 0.002809576
0.0069029815 0.0057845595 0.010358859 0.002302255 -0.004014523 0.0019590096 -0.002217589 0.005599489
-0.0071247225 0.0046570036 0.007455863 -0.003332147 -0.007898838 0.004384674 0.0056711463 0.006449666
0.00042598203 0.01208784 -0.0068875067 -0.006146631 0.010068101 0.012030967 -0.0047376477 0.0015381766
0.0052685156 -0.008297446 -0.0071140015 -0.002904742 0.010595748 -0.012933578 -0.011358696 -0.0023113452
0.00016043306 0.03742032 -0.007229351 -0.0020010697 -0.011607495 0.0033363865 -0.019913487 -0.013269444
-0.004271347 0.0272783 0.0067399372 -0.030580614 -0.017587231 0.017807355 -0.010528488 0.0023886247
5.0889623e-05 2.0903567e-06 8.549922e-05 8.0438134e-05 2.4779049e-05 -1.8506073e-05 -3.0624276e-05 -0.00012476304
0.0001774071 -2.0854472e-05 5.7722795e-05 -3.39609e-05 4.4097855e-05 0.00013061478 -2.3805294e-05 4.9466707e-05
1.5122155e-05 2.276138e-05 2.3485829e-05 -2.1040982e-05 4.0477687e-05 -2.1300625e-06 -4.9339462e-05 -2.3456849e-05
2.6322403e-05 -3.440351e-05 -1.9569936e-05 3.5761906e-05 -2.3868522e-05 3.0654854e-05 -8.350227e-05 7.132186e-05
6.0312093e-05 1.8837703e-05 3.246481e-05 -9.781413e-06 1.526339e-05 -1.0779266e-05 -4.9816185e-06 -3.038625e-05
-2.6986736e-05 -2.9690402e-05 -1.0114195e-05 6.360729e-05 -6.5546246e-06 1.5522024e-05 2.6678465e-05 -1.8969864e-05
2.7311971e-05 9.885696e-06 -3.0946867e-05 1.34549955e-05 -1.1237133e-05 6.374538e-07 1.6449676e-05 3.1905525e-05
-4.780382e-06 -2.2970469e-06 6.1165792e-06 -2.2167354e-05 2.357005e-05 -4.941335e-05 3.331123e-05 2.4037681e-06
-3.619696e-05 -3.945444e-05 1.6803267e-05 3.6187437e-05 2.9629387e-05 2.7855636e-05 -1.8372484e-05 5.2314426e-05
3.212666e-05 -3.986713e-05 -1.320933e-05 -2.5568666e-05 1.6938982e-05 4.5000143e-05 4.535868e-06 -1.5058278e-05
2.3951192e-05 -3.4276105e-05 -4.3625173e-06 2.145786e-05 -1.3803392e-05 2.7182483e-05 4.3288896e-06 1.1821414e-05
-3.0230301e-05 -1.3737123e-05 -4.334846e-05 2.7605014e-05 -3.595635e-05 2.8588778e-05 -2.722707e-05 -1.2527145e-05
2.2901177e-06 1.25745355e-05 -6.0571115e-06 -1.5285681e-05 3.6737674e-05 2.1705859e-05 1.2382311e-05 -3.7965805e-05
-3.1486343e-06 1.2909433e-05 3.618714e-06 -3.6664608e-06 5.9305114e-07 -9.148369e-06 -9.706014e-06 -3.169737e-06
-4.947135e-07 -5.6649355e-05 -1.7305438e-05 -2.7513888e-06 -2.1388549e-05 -3.5729984e-06 1.6441612e-05 1.1381183e-05
2.485023e-06 4.748861e-06 1.7383314e-05 3.0947722e-05 -1.4614409e-05 1.1840314e-05 2.0322208e-05 -1.8597308e-06
00000000: 6f2f 6d3c e128 d8bb b5db 90bc 70ff 623c
00000010: e8a1 f1bb b71f 8abc 7115 25bc c902 32bc
00000020: 217a 08bd 5b72 20bc 7fd8 853a 021a 3e3c
00000030: d94b 0d3c 4658 f7bb 1786 ae3b 9773 8b3c
00000040: 1772 173c ae4e 213c eca3 1a3c f3f6 0f3c
00000050: 9442 bb3b 96a9 343c 78fe b8bb f2d8 b73b
00000060: 2a04 11bb 14bf ac3b f280 d3bb d6da 673c
00000070: c406 37bc 6c4b 9dbb 4746 a53b f541 52ba
00000080: 0f9a ab3b 0361 cabb 7214 afbb dbb5 433b
00000090: 98fd 8a3a 8726 b3bb ea50 fb3a d0fe fd3b
000000a0: 30d7 c23b 5f0a a5b9 36ed 8cbb f7fd b73b
000000b0: 9a10 d6ba 41c0 8b3a eede c73b 743f bbbb
000000c0: 56ee 14bc 6193 3ebc 4d68 8bbc 869c d13c
000000d0: 6dab aabc c420 e0ba 6025 17bc c847 84bb
000000e0: 8947 98b9 0ec6 28bc 4424 3e3b 25d1 75bc
000000f0: b108 53ba 3e58 feba 8723 583b ced1 3fbc
00000100: 0831 30bc 20b7 003c c49c cbb9 4218 a9bb
00000110: ad81 2bb9 3843 1e3c 6d43 a53c 7ff0 573c
00000120: ec65 48bb 98ae 033d 0f04 80ba 3acc 1fbb
00000130: 13ea 3ebc 6d88 cc3b 07f3 a6bc dd20 383b
00000140: 6832 e23b 678c bd3b 34b8 293c 6ee1 163b
00000150: 428c 83bb ba62 003b f854 11bb eb7b b73b
00000160: 8176 e9bb c799 983b 5050 f43b 2660 5abb
00000170: 216a 01bc 50ad 8f3b 06d5 b93b b857 d33b
00000180: 5756 df39 130c 463c 98b0 e1bb ae69 c9bb
00000190: adf4 243c 881d 453c 453e 9bbb a49c c93a
000001a0: 83a3 ac3b 03f2 07bc 921c e9bb 7c5d 3ebb
000001b0: ca99 2d3c 5ce7 53bc d319 3abc f079 17bb
000001c0: ec39 2839 0d46 193d 31e4 ecbb 6124 03bb
000001d0: 5d2d 3ebc 47a7 5a3b 9c21 a3bc 1568 59bc
000001e0: a8f6 8bbb be76 df3c b1da dc3b 3284 fabc
000001f0: 1913 90bc bbe0 913c ae7f 2cbc 798a 1c3b
00000200: 5172 5538 0e48 0c36 0b4e b338 e5b0 a838
00000210: 9adc cf37 7d3d 9bb7 9172 00b8 d3d2 02b9
00000220: 5b06 3a39 a3f0 aeb7 611b 7238 3d71 0eb8
00000230: b6f5 3838 a3f5 0839 7bb1 c7b7 797a 4f38
00000240: 29b5 7d37 b1ef be37 6f03 c537 2a81 b0b7
00000250: 96c6 2938 32f2 0eb6 d8f1 4eb8 33c5 c4b7
00000260: eece dc37 7d4c 10b8 1e2a a4b7 0eff 1538
00000270: 4339 c8b7 6693 0038 f11d afb8 a292 9538
00000280: 9ef7 7c38 a905 9e37 d32a 0838 d91a 24b7
00000290: e109 8037 98d8 34b7 c727 a7b6 fae5 feb7
000002a0: 9361 e2b7 a70f f9b7 23b0 29b7 e764 8538
000002b0: ccef dbb6 4b35 8237 91cb df37 7921 9fb7
000002c0: 031c e537 beda 2537 f2cc 01b8 c4bc 6137
000002d0: 1e87 3cb7 7e1d 2b35 69fd 8937 4cd2 0538
000002e0: 2b67 a0b6 f726 1ab6 043d cd36 08f4 b9b7
000002f0: 4cb8 c537 2e41 4fb8 a9b7 0b38 6c50 2136
00000300: 31d2 17b8 e27b 25b8 bef4 8c37 f7c7 1738
00000310: a08c f837 86ab e937 9c1e 9ab7 306c 5b38
00000320: bdbf 0638 0137 27b8 a49d 5db7 4b7c d6b7
00000330: 3018 8e37 89be 3c38 cf32 9836 d0a2 7cb7
00000340: cbea c837 b0c3 0fb8 bd61 92b6 6700 b437
00000350: 1e95 67b7 f005 e437 e140 9136 9654 4637
00000360: 1497 fdb7 7e78 66b7 0ed1 35b8 5191 e737
00000370: d6cf 16b8 efd1 ef37 b065 e4b7 ae2b 52b7
00000380: ecaf 1936 38f7 5237 313e cbb6 c039 80b7
00000390: c716 1a38 fa14 b637 9fbd 4f37 793d 1fb8
000003a0: 204d 53b6 9895 5837 08d9 7236 510d 76b6
000003b0: 2a32 1f35 f27b 19b7 03d7 22b7 abb7 54b6
000003c0: 74cc 04b5 c89a 6db8 252b 91b7 80a4 38b6
000003d0: 8f6b b3b7 a5c7 6fb6 18ec 8937 cff1 3e37
000003e0: 5fc4 2636 6858 9f36 62d2 9137 ddcd 0138
000003f0: 6930 75b7 c3a5 4637 9c79 aa37 dd9b f9b5

encoder.self_attn.out_proj.weight f4 [128, 128]
0.09006606 0.060055804 0.0024071226 0.009804582 0.07943711 -0.04626995 0.09195586 -0.04866178
-0.048332226 0.020017236 0.060754616 -0.036853924 0.0040905117 -0.019007813 -0.028300092 -0.0050999755
0.05106534 -0.08502368 -0.02981102 0.08792398 0.0074061863 -0.08247862 0.039906617 0.08290296
0.012972432 0.04066226 0.078404635 -0.08019425 0.041906487 0.04193161 -0.00028314465 -0.01112794
0.08296518 0.05668578 -0.008858593 0.012192691 -0.05224036 -0.030866103 -0.056196228 -0.025331931
0.08694783 -0.06719646 -0.046263907 -0.04734542 -0.07230463 -0.0017700824 -0.09148838 0.036156315
-0.04837902 -0.038991597 -0.025560403 -0.03187973 0.026368275 -0.030811194 -0.028641425 -0.02673785
0.020526685 0.03831177 0.06814262 0.07212969 -0.061974365 0.06049127 0.074375786 0.07852797
-0.026008306 0.070604555 -0.04988576 -0.08735879 0.033249017 0.015823863 0.07699435 0.047223873
0.045233235 0.0455207 0.04522446 -0.002741795 -0.078222185 -0.0736548 -0.049552366 -0.0051193153
0.02566503 0.010139412 0.047644533 0.04911906 -0.043419577 0.01667867 0.062767535 -0.0600315
0.014227458 0.028931206 0.06922659 -0.044047024 -0.090337195 0.076380655 -0.06884999 -0.020893546
-0.057814788 -0.020372273 -0.07091954 0.0739974 0.015486215 0.08829519 0.069092534 -0.0061291084
0.05482571 -0.0064573 -0.02689731 0.045149956 -0.041176718 -0.026416728 0.04787853 0.031671755
-0.030004788 -0.09028817 -0.04497542 0.06096901 0.05210119 0.0054842983 -0.0055096517 -0.024516614
-0.07903138 0.026455576 -0.0069504865 0.05647677 0.047064103 -0.09031737 -0.06705154 0.0031593218
0.041311197 -0.042829897 0.004613478 -0.07098634 -0.061014883 -0.00329342 0.06991522 -0.028582294
-0.02798948 0.0060415887 -0.09019892 0.050856087 0.067358255 0.017291235 0.05146697 -0.021819336
-0.089140914 -0.0152605595 0.010664987 0.06580391 -0.039132725 0.051435765 -0.010111278 0.06820035
-0.047465853 0.0275151 -0.0046134624 0.060428184 0.012475963 0.08807089 0.09203051 -0.05220083
-0.076506674 0.039776124 -0.0021612365 0.055065278 0.032285966 0.03935216 0.0861148 0.03920637
0.03370675 -0.071051635 -0.0418578 -0.061371807 0.018863529 -0.008149708 -0.0160948 0.01700414
-0.087224394 0.022431614 0.06817956 0.08451466 0.00959846 0.03555851 -0.026169775 -0.08446402
-0.00455283 -0.01798464 -0.051830903 0.0543402 0.06737807 -0.07019089 -0.04743487 -0.053659003
-0.086334154 0.073346324 -0.0077181906 -0.015334364 -0.08650821 0.0848418 -0.042759117 -0.06996669
0.023882153 0.012599535 -0.040854044 -0.0858282 0.008308787 -0.019885242 -0.04283871 0.03456152
0.035250947 -0.002899063 -0.04117761 0.020968318 0.052019387 -0.05111676 0.0050326814 0.035596266
0.06762806 -0.08225823 -0.057700146 0.017759709 -0.06396066 0.08416004 -0.011675068 -0.034188695
0.022540173 0.0019630303 0.053718794 -0.05831799 -0.030218026 -0.012221501 -0.008669735 -0.012767472
-0.044237755 -0.06707597 -0.041504223 -0.034619495 -0.032282595 0.01849674 0.07252555 0.005290591
-0.040487345 -0.018581247 -0.0056352215 -0.063871115 0.078066595 0.009400633 0.015355637 -0.014847073
-0.071763195 0.041758712 -0.090405166 -0.031977165 -0.010931075 -0.07063398 0.028459609 -0.07929347
00000000: 8e74 b83d 13fd 753d d1c0 1d3b 66a3 203c
00000010: ecaf a23d 8f85 3dbd 5b53 bc3d 9351 47bd
00000020: 03f8 45bd 30fb a33c d5d9 783d 24f4 16bd
00000030: b309 863b 46b6 9bbc 98d5 e7bc b21d a7bb
00000040: e429 513d e520 aebd 3d36 f4bc 7d11 b43d
00000050: 98af f23b 8dea a8bd 1f75 233d 07c9 a93d
00000060: 538a 543c 788d 263d 9c92 a03d e23c a4bd
00000070: 23a6 2b3d 7bc0 2b3d 0873 94b9 f751 36bc
00000080: a6e9 a93d 592f 683d a223 11bc dac3 473c
00000090: fdf9 55bd e9da fcbc 042e 66bd e984 cfbc
000000a0: b411 b23d 4c9e 89bd 397f 3dbd 45ed 41bd
000000b0: 7314 94bd 1c02 e8ba 435e bbbd a518 143d
000000c0: 1429 46bd a7b5 1fbd 0d64 d1bc 5294 02bd
000000d0: 4802 d83c c267 fcbc 6ca1 eabc 5609 dbbc
000000e0: 9427 a83c cdec 1c3d 5c8e 8b3d bbb8 933d
000000f0: d5d8 7dbd b2c5 773d 5552 983d 46d3 a03d
00000100: 5f0f d5bc 1f99 903d 0355 4cbd 2ae9 b2bd
00000110: 1f30 083d 0ca1 813c 37af 9d3d d26d 413d
00000120: 7c46 393d ea73 3a3d 493d 393d b0af 33bb
00000130: f432 a0bd 54d8 96bd 6cf7 4abd eebf a7bb
00000140: 783f d23c c71f 263c ea26 433d 1131 493d
00000150: bad8 31bd b5a1 883c 448c 803d 97e3 75bd
00000160: 491a 693c 2301 ed3c acc6 8d3d a76a 34bd
00000170: b502 b9bd 766d 9c3d 3901 8dbd f128 abbc
00000180: 33cf 6cbd c1e3 a6bc 443e 91bd f38b 973d
00000190: e5b9 7d3c 1cd4 b43d 6380 8d3d b0d6 c8bb
000001a0: ec90 603d c297 d3bb bf57 dcbc 29ef 383d
000001b0: eba8 28bd e567 d8bc 471c 443d 3eba 013d
000001c0: 9acc f5bc 01e9 b8bd 2538 38bd a4ba 793d
000001d0: 0f68 553d a1b5 b33b 4f8a b4bb 11d7 c8bc
000001e0: 34db a1bd 5db9 d83c e8c0 e3bb 3054 673d
000001f0: 4ac6 403d 50f8 b8bd 5152 89bd a00c 4f3b
00000200: ee35 293d 676e 2fbd a92c 973b 4961 91bd
00000210: beea 79bd 6bd6 57bb b62f 8f3d 6a25 eabc
00000220: 324a e5bc 85f8 c53b 36ba b8bd 794e 503d
00000230: 20f3 893d 59a6 8d3c 08cf 523d 77be b2bc
00000240: 838f b6bd 6d07 7abc 33bc 2e3c 33c4 863d
00000250: a349 20bd 4fae 523d c6a9 25bc a0ac 8b3d
00000260: 8e6b 42bd 5967 e13c 872c 97bb 8b83 773d
00000270: fb67 4c3c 835e b43d 7e7a bc3d 8ad0 55bd
00000280: 88af 9cbd 4aec 223d 88a3 0dbb 218c 613d
00000290: 4a3e 043d bb2f 213d f55c b03d dc96 203d
000002a0: 1710 0a3d 8583 91bd 1673 2bbd 0161 7bbd
000002b0: b087 9a3c 5a86 05bc 3ed9 83bc 444c 8b3c
000002c0: b4a2 b2bd 81c2 b73c baa1 8b3d 0616 ad3d
000002d0: dc42 1d3c cda5 113d ff61 d6bc 79fb acbd
000002e0: e82f 95bb 8654 93bc a44c 54bd d493 5e3d
000002f0: 83fd 893d 3ec0 8fbd 114b 42bd 8bc9 5bbd
00000300: f6cf b0bd 9936 963d e0e8 fcbb fc3c 7bbc
00000310: 372b b1bd 8ac1 ad3d 2f24 2fbd b24a 8fbd
00000320: 81a4 c33c 486e 4e3c 9256 27bd b2c6 afbd
00000330: 9421 083c 60e6 a2bc a577 2fbd 6190 0d3d
00000340: 4c63 103d 35fe 3dbb dba9 28bd c0c5 ab3c
00000350: 4812 553d cf5f 51bd 31e9 a43b 64cd 113d
00000360: 9580 8a3d 0177 a8bd fd56 6cbd cf7c 913c
00000370: cefd 82bd 195c ac3d c948 3fbc 7209 0cbd
00000380: 2ba6 b83c 2fa6 003b 3d08 5c3d d8de 6ebd
00000390: cb8b f7bc b13c 48bc 810b 0ebc a92e 51bc
000003a0: a632 35bd 205f 89bd 5500 2abd 2ccd 0dbd
000003b0: c13a 04bd 7a86 973c 4788 943d b25c ad3b
000003c0: 0fd6 25bd b337 98bc aaa7 b8bb dcce 82bd
000003d0: 61e1 9f3d 1d05 1a3c 3696 7b3c 2341 73bc
000003e0: 95f8 92bd 2f0b 2b3d 5826 b9bd 7dfa 02bd
000003f0: 4018 33bc 8ca8 90bd 2024 e93c 9d64 a2bd

encoder.self_attn.out_proj.bias f4 [128]
-0.005548707 -0.00040967268 0.00074973615 -0.00072153815 0.0017877836 0.001205155 0.0051006377 -0.0025675658
0.008121666 0.0033802122 -0.00051216804 -0.0022430518 0.0044686324 -0.0030403417 0.0023295872 0.008475344
-0.0018346335 6.845181e-05 -0.0015399649 0.0004794684 -0.0038616944 0.0017332325 -0.0017625313 -0.0001996768
-0.003101133 -0.0023392728 0.00060905423 0.00072082103 -0.0038926955 0.006714114 0.003384834 -0.0007046671
0.002678751 0.0028769257 -0.004051386 0.003735073 0.0026490074 0.00036246775 0.0019950508 0.0018121261
0.00030848113 -0.0004056584 0.0018040172 0.0031760584 -0.0047786217 -0.00090861775 -0.0012282134 -0.0016959582
0.0024254445 -0.0015979912 -0.0018714011 0.0036299687 0.0011068888 -0.003006929 -0.0002042143 -0.00057697087
0.0016020794 0.0058301133 -0.0025805174 -0.004197508 0.0008491589 6.932442e-05 0.0056987787 0.0005330119
-0.0024357967 -0.00074011664 0.0026384662 0.00081350055 -0.001426299 0.002171118 -0.003906794 0.0021184
-0.0019416865 -0.0005196825 0.0012230937 -0.0026931146 0.0010720049 0.0003483534 -0.0006238779 0.001169694
3.7283215e-05 0.0022205275 0.00096251885 -0.0005617012 0.00047464407 -0.0015777553 -0.0018664671 -0.001634138
0.001466593 -0.004198106 0.0017977799 0.0031670937 -0.0008238405 0.0036273215 -0.002025656 -0.00019049934
0.003281621 0.00022772244 0.0035879707 -0.0022689584 0.0049314103 6.8808185e-05 -0.001150858 -0.0010122085
0.001654994 0.005294118 -0.0046095024 -0.0025355576 1.8899384e-05 0.0044747717 -0.0016144041 -0.0005635272
-0.0049972446 0.0032238828 -0.0053407443 -0.0032405006 -0.0008194579 0.00016248692 -0.0022835955 -0.0017826686
0.0005819507 0.00091832667 0.0009546004 0.0043423832 0.0013624127 -0.00077583874 0.002552513 -0.00030499464
00000000: eed1 b5bb 56c9 d6b9 f189 443a 9b25 3dba
00000010: 1054 ea3a 4bf6 9d3a 4023 a73b 9b44 28bb
00000020: bc10 053c 8d86 5d3b 0443 06ba 2a00 13bb
00000030: 9b6d 923b 7840 47bb fdab 183b 2bdc 0a3c
00000040: 1678 f0ba c98d 8f38 a6d8 c9ba 2961 fb39
00000050: 7b14 7dbb a22d e33a bd04 e7ba 5560 51b9
00000060: 613c 4bbb 7c4e 19bb f0a8 1f3a 7bf5 3c3a
00000070: 981c 7fbb 1202 dc3b 17d4 5d3b 69b9 38ba
00000080: fc8d 2f3b ce8a 3c3b 7dc1 84bb 20c8 743b
00000090: f89a 2d3b 9909 be39 66bf 023b dd84 ed3a
000000a0: a3bb a139 8cae d4b9 c674 ec3a 6b25 503b
000000b0: fc95 9cbb 4e30 6eba 01fc a0ba ea4a deba
000000c0: 35f4 1e3b b073 d1ba cd49 f5ba c5e4 6d3b
000000d0: 0615 913a e60f 45bb 5c22 56b9 dc3f 17ba
000000e0: ddfc d13a 890a bf3b e61d 29bb 408b 89bb
000000f0: 179a 5e3a 4462 9138 d2bc ba3b d3b9 0b3a
00000100: e3a1 1fbb 6304 42ba 1eea 2c3b 1941 553a
00000110: a7f2 baba 5149 0e3b 9004 80bb dbd4 0a3b
00000120: 3080 feba 4d3b 08ba 3750 a03a f77e 30bb
00000130: 8482 8c3a 34a3 b639 bd8b 23ba 6b50 993a
00000140: 8c60 1c38 4586 113b 8c51 7c3a 213f 13ba
00000150: a6d9 f839 afcc ceba 3ea4 f4ba 9330 d6ba
00000160: b23a c03a 4490 89bb 7ca3 eb3a 048f 4f3b
00000170: 00f7 57ba 5bb8 6d3b dec0 04bb c7c0 47b9
00000180: 7710 573b c7c8 6e39 2924 6b3b ceb2 14bb
00000190: ab97 a13b 1d4d 9038 63d8 96ba 15ac 84ba
000001a0: 62ec d83a 487a ad3b 4f0b 97bb 992b 26bb
000001b0: 1e8a 9e37 1ba1 923b 6a9a d3ba acb9 13ba
000001c0: edbf a3bb c747 533b 6901 afbb 945e 54bb
000001d0: e4d0 56ba 4061 2a39 60a8 15bb 6fa8 e9ba
000001e0: 0d8e 183a dcbb 703a 263e 7a3a 8d4a 8e3b
000001f0: fc92 b23a a861 4bba 1048 273b b0e7 9fb9

encoder.linear1.weight f4 [128, 128]
0.07215018 -0.014324638 0.013017969 -0.002631718 0.059069954 -0.023383463 0.051438503 -0.015765125
-0.06738796 0.05900565 0.044582438 0.049288932 -0.07371707 0.0744412 -0.03175903 -0.03099726
-0.041563187 -0.070199445 -0.089040555 0.05696597 -0.007841084 -0.005728767 -0.0089192195 0.083875984
-0.05161205 0.06641304 -0.056971464 0.073177785 0.06471753 0.041607026 -0.029456057 0.072023354
0.021199279 0.08762212 0.045828912 0.0018675114 0.046599355 0.067937575 -0.08494103 -0.0014412529
0.019896382 0.026432462 -0.038008533 0.004161565 0.028529521 0.023017395 -0.03804046 -0.011986599
-0.031879876 -0.071455546 0.015932644 -0.063913256 0.040064707 0.021575969 -0.014854704 0.05908139
0.073054515 0.044071827 -0.061606035 -0.044165216 0.0242956 -0.027090024 -0.0683647 0.060357187
0.08749157 -0.07734763 0.05982663 0.03982642 -0.06386379 0.051599447 0.03968887 0.029553125
-0.05228356 0.038200907 -0.042313214 0.07523057 0.047268312 -0.02902366 0.017937033 0.03777582
0.0034988842 -0.025673434 0.0003624082 -0.048504047 -0.004494587 -0.061874457 -0.0034221748 0.060505357
0.0017580341 0.042040046 0.07005032 0.04989747 0.052081957 -0.01444947 -0.04497107 -0.07009723
0.028573852 -0.065544575 -0.01950714 0.044563152 -0.026741026 0.061578806 0.043674793 0.037153393
0.031845715 -0.084003806 0.08041201 0.034740552 -0.0065225493 -0.051746257 0.08263402 -0.03531396
-0.054156672 0.050115805 -0.049261335 -0.02080022 -0.027570441 0.079509936 0.051138215 -0.0020495588
0.014192685 -0.06804811 0.012094965 0.012422509 0.028647931 0.077627905 -0.04105051 0.07544607
-0.06658358 0.002432157 0.039562833 -0.071922876 -0.066351265 -0.029103357 0.04791194 0.061795942
0.022016913 -0.017239995 0.061344694 -0.028760321 0.052628517 -0.045668148 -0.05200255 -0.07089307
0.08164588 0.045133572 0.052271053 -0.029880334 0.053782314 0.047116593 -0.06521605 -0.06005489
0.06937142 0.0477813 0.0507974 -0.07718865 -0.048900012 0.08254136 -0.06090909 0.02311047
0.01658812 -0.052891165 0.040515885 0.071043946 0.0076467805 0.038499374 -0.034446474 -0.030077776
0.06719379 0.080457896 -0.056329034 0.07731838 0.055417404 -0.022101229 0.06800493 0.009480405
0.071346335 -0.03084855 -0.029894553 0.07889046 0.049431305 0.021648902 0.03532518 -0.078793906
-0.03722615 0.022935081 0.024924962 0.02436812 -0.008984146 -0.03462549 -0.013142868 -0.092228554
-0.034527943 -0.06971973 -0.024840144 0.006646821 0.06693383 0.0073534525 -0.084181085 0.06484099
-0.07977195 0.023007441 -0.064917795 0.014276719 -0.02503526 -0.004577337 -0.081905976 0.0038010613
-0.0062578376 0.052165084 -0.020365449 0.010248959 0.0105032455 0.028047416 -0.08485963 0.0483642
-0.06810771 0.07076 -0.030796714 0.053095885 -0.022793608 0.05891179 0.06529594 -0.011201392
-0.01875461 0.05045626 0.04884991 0.042610306 0.049123954 -0.0175092 0.055387672 0.058631685
0.0057682768 0.074739456 0.018138492 0.0051296335 -0.04992209 0.081603624 -0.0025889918 -0.0123079205
-0.0043858895 -0.029402137 -0.06557759 -0.06070494 0.029435476 0.07828409 -0.046684977 0.031298146
-0.074815035 -0.07167025 -0.07105787 -0.0827985 -0.05708766 0.056614425 -0.0050914977 0.050869443
00000000: 79c3 933d e3b1 6abc 5249 553c e778 2cbb
00000010: 56f3 713d ad8e bfbc 2eb1 523d dd25 81bc
00000020: b302 8abd e9af 713d 139c 363d 31e3 493d
00000030: faf8 96bd a174 983d c215 02bd f7ed fdbc
00000040: 293e 2abd bac4 8fbd e55a b6bd 2655 693d
00000050: e477 00bc 61b8 bbbb eb21 12bc 2cc7 ab3d
00000060: 2867 53bd 8f03 883d e95a 69bd 3cde 953d
00000070: a08a 843d 216c 2a3d d44d f1bc fb80 933d
00000080: 1caa ad3c 3a73 b33d 19b7 3b3d 49c7 f43a
00000090: f7de 3e3d db22 8b3d 90f5 adbd 6ce8 bcba
000000a0: bdfd a23c e488 d83c d6ae 1bbd bd5d 883b
000000b0: beb6 e93c fa8e bc3c 50d0 1bbd 7163 44bc
000000c0: 7994 02bd 4957 92bd 2d85 823c f4e4 82bd
000000d0: e41a 243d 16c0 b03c 2561 73bc 54ff 713d
000000e0: 9b9d 953d a984 343d 9c56 7cbd 96e6 34bd
000000f0: 9107 c73c e6eb ddbc cb02 8cbd 1939 773d
00000100: c82e b33d 6f68 9ebd c50c 753d 0721 233d
00000110: 05cb 82bd f159 533d cc90 223d 6519 f23c
00000120: 4927 56bd 8e78 1c3d 9f50 2dbd 7c12 9a3d
00000130: 6b9c 413d 07c3 edbc aff0 923c d1ba 1a3d
00000140: 894d 653b 1851 d2bc 9b01 be39 2eac 46bd
00000150: 5447 93bb 1270 7dbd 9146 60bb 77d4 773d
00000160: d66d e63a 2f32 2c3d 8b76 8f3d 4a61 4c3d
00000170: e453 553d 78bd 6cbc 9633 38bd 238f 8fbd
00000180: b613 ea3c 3c3c 86bd 70cd 9fbc da87 363d
00000190: ff0f dbbc 0f3a 7c3d 57e4 323d 282e 183d
000001a0: a770 023d 300a acbd 0daf a43d 1c4c 0e3d
000001b0: 1cbb d5bb e2f3 53bd 063c a93d 5fa5 10bd
000001c0: 63d3 5dbd 3b46 4d3d 41c6 49bd 3965 aabc
000001d0: 68db e1bc 1bd6 a23d 4e76 513d e451 06bb
000001e0: 6f88 683c cf5c 8bbd f629 463c c787 4b3c
000001f0: 11af ea3c 61fb 9e3d 9424 28bd 7883 9a3d
00000200: f95c 88bd d364 1f3b a30c 223d 4d4c 93bd
00000210: 2ce3 87bd 2a6a eebc 4f3f 443d be1d 7d3d
00000220: d05c b43c e43a 8dbc 9344 7b3d c49a ebbc
00000230: 0091 573d 860e 3bbd a000 55bd 6330 91bd
00000240: f535 a73d fbdd 383d 2c1a 563d 9ac7 f4bc
00000250: d84a 5c3d 54fd 403d fe8f 85bd 1efc 75bd
00000260: 9a12 8e3d 53b6 433d ef10 503d 1515 9ebd
00000270: 614b 48bd 720b a93d cf7b 79bd 2b52 bd3c
00000280: cfe3 873c 68a4 58bd fcf3 253d 7d7f 913d
00000290: d891 fa3b 85b1 1d3d bf17 0dbd ab65 f6bc
000002a0: e69c 893d 1cc7 a43d 46b9 66bd 1959 9e3d
000002b0: 5cfd 623d a30d b5bc 2b46 8b3d b353 1b3c
000002c0: 071e 923d 19b6 fcbc 6ce5 f4bc 5291 a13d
000002d0: 7b78 4a3d 0a59 b13c 23b1 103d b35e a1bd
000002e0: 737a 18bd 5ae2 bb3c 6f2f cc3c a79f c73c
000002f0: 3d32 13bc 75d3 0dbd 2f55 57bc 53e2 bcbd
00000300: 2c6d 0dbd 38c9 8ebd 8f7d cbbc 93cd d93b
00000310: 9b14 893d 3bf5 f03b 2267 acbd 5acb 843d
00000320: 7a5f a3bd 1a7a bc3c 9ff3 84bd e6e8 693c
00000330: bf16 cdbc 7cfd 95bb 52be a7bd 3a1b 793b
00000340: 8c0e cdbb 0eab 553d 71d5 a6bc 40eb 273c
00000350: ce15 2c3c b2c3 e53c e3ca adbd 8a19 463d
00000360: 0e7c 8bbd 9eea 903d 6449 fcbc 127b 593d
00000370: a9b9 babc 7d4d 713d e1b9 853d 0b86 37bc
00000380: 45a3 99bc 39ab 4e3d d816 483d 2588 2e3d
00000390: 3336 493d 746f 8fbc 2fde 623d c727 703d
000003a0: d003 bd3b 0011 993d 2d97 943c 7c16 a83b
000003b0: 1b7b 4cbd cd1f a73d 13ac 29bb 29a7 49bc
000003c0: 82b7 8fbb c0dc f0bc 8b4d 86bd bea5 78bd
000003d0: ab22 f13c 6953 a03d bf38 3fbd 7c32 003d
000003e0: a038 99bd dac7 92bd ca86 91bd 4392 a9bd
000003f0: c0d4 69bd 87e4 673d 94d6 a6bb 7a5c 503d

encoder.linear1.bias f4 [128]
0.048584808 -0.039592355 -0.057190195 -0.050052796 0.050226167 0.009072593 -0.0011444127 -0.004109639
0.04822009 -0.010411139 0.020276392 0.014767639 -0.091228105 -0.053552613 -0.04394532 -0.0065950635
-0.069825955 0.0060065645 0.062012855 -0.0613347 0.06580714 0.045909837 -0.032434072 0.010928357
0.07784049 -0.053934574 -0.022741321 -0.024685888 -0.08195061 0.009370886 -0.054191135 -0.04727162
0.05845479 0.014015479 -0.024613472 -0.018864416 0.04786143 -0.05736568 0.018343706 0.07223125
-0.049281266 0.0425459 0.016805736 0.057379156 -0.051211253 0.06580323 0.012856091 0.018984025
0.008411324 -0.039873675 0.020466534 0.046628922 0.072259165 -0.08140802 0.03348833 -0.08305668
0.043555286 0.08137044 0.060968254 0.0454057 0.05329493 -0.041358206 0.03621133 0.059397087
0.033508793 -0.034589153 -0.057895776 0.01360249 0.07756413 -0.026607657 -0.07937263 -0.026868364
-0.050648775 -0.030229805 0.073245876 -0.019707236 0.062377743 0.0435351 0.0004104466 0.020286094
-0.010563174 -0.038250826 0.07636636 0.08589781 0.08425372 0.04867872 -0.08140869 -0.0023137298
-0.058486763 0.02518795 0.037087504 0.06870533 -0.06650537 -0.033235926 -0.052266024 -0.0056847446
0.024861831 0.09386493 -0.057838712 -0.04702122 -0.07322934 -0.025163382 0.057764597 0.0086551225
-0.0682328 0.0057116146 -0.06414886 0.022450201 0.07664657 0.0024468366 0.04809424 -0.0046555856
0.01021067 0.04634066 0.03561054 0.091005385 -0.04401248 -0.077199265 -0.024094982 -0.021630075
-0.032500103 0.05960418 -0.0610567 0.03630169 0.049858976 0.035914306 -0.038638882 0.08503457
00000000: dd00 473d 982b 22bd 4440 6abd 2904 4dbd
00000010: f4b9 4d3d 37a5 143c 1e00 96ba 27aa 86bb
00000020: 6e82 453d 7b93 2abc ad1a a63c f8f3 713c
00000030: cdd5 babd fc59 5bbd 0200 34bd 671b d8bb
00000040: e900 8fbd b7d2 c43b 3101 7e3d 183a 7bbd
00000050: e5c5 863d f40b 3c3d 97d9 04bd da0c 333c
00000060: d66a 9f3d 80ea 5cbd 024c babc 0f3a cabc
00000070: b9d5 a7bd 5888 193c 86f7 5dbd e39f 41bd
00000080: 4a6e 6f3d 2ea1 653c 31a2 c9bc 8c89 9abc
00000090: 590a 443d 46f8 6abd 8a45 963c faed 933d
000000a0: 27db 49bd 9c44 2e3d 2fac 893c 6806 6b3d
000000b0: e4c2 51bd d8c3 863d 5ba2 523c 6384 9b3c
000000c0: a6cf 093c 9452 23bd 6fa9 a73c f8fd 3e3d
000000d0: 9dfc 933d 3fb9 a6bd 0f2b 093d 9f19 aabd
000000e0: 0767 323d 8ca5 a63d d9b9 793d 54fb 393d
000000f0: c94b 5a3d 3967 29bd 5552 143d 5c4a 733d
00000100: 8440 093d 5bad 0dbd 1f24 6dbd fadc 5e3c
00000110: f1d9 9e3d 4df8 d9bc 1e8e a2bd 0b1b dcbc
00000120: 1775 4fbd 7fa4 f7bc ef01 963d 1271 a1bc
00000130: ce7f 7f3d dc51 323d 3631 d739 062f a63c
00000140: 2a11 2dbc e6ac 1cbd f765 9c3d 31eb af3d
00000150: 378d ac3d 5663 473d 99b9 a6bd f2a1 17bb
00000160: d18f 6fbd f656 ce3c 11e9 173d 61b5 8c3d
00000170: f833 88bd 6522 08bd e614 56bd 1847 babb
00000180: 0aab cb3c 423c c03d 49e8 6cbd 5399 40bd
00000190: 44f9 95bd 7023 cebc 929a 6c3d 37ce 0d3c
000001a0: a3bd 8bbd 7f28 bb3b 7a60 83bd 7ce9 b73c
000001b0: e0f8 9c3d 1b5b 203b 77fe 443d e28d 98bb
000001c0: a74a 273c b4cf 3d3d 5cdc 113d 0861 ba3d
000001d0: 6e46 34bd a61a 9ebd d762 c5bc 8e31 b1bc
000001e0: d41e 05bd 8323 743d 9716 7abd 15b1 143d
000001f0: ed38 4c3d e11a 133d ce43 1ebd 9b26 ae3d
