single_energy_learning/model.pth (torch, 409849 bytes, 17 tensors)

goal f4 [6]
0	0xbea7e38c	-0.32790792
1	0x3f3b87c7	0.73254055
2	0xbf53c9e9	-0.82729965
3	0xbf729103	-0.9475252
4	0x3f0e67f5	0.55627376
5	0x3fbf4edd	1.4945942

conv1.weight f4 [128, 6, 1]
0	0x3e8137a9	0.25237778
1	0xbc5199b5	-0.012792994
2	0xbed13870	-0.4086337
3	0xbe03e79c	-0.1288132
4	0x3dbd64b7	0.092477255
5	0xbe1f7f41	-0.15575887
6	0x3e1e6a78	0.15470302
7	0xbc57095b	-0.013124789
8	0xbce9ca58	-0.028538868
9	0x3ebc46ac	0.36772668
10	0xbeb5931c	-0.35463798
11	0x3e02aaf1	0.12760521
12	0xbdbad366	-0.09122352
13	0x3e04602d	0.12927313
14	0xbe9ce0f5	-0.3064038
15	0xbe89e143	-0.26929674
16	0xbe2edc76	-0.17076287
17	0x3ecd83a8	0.40139508
18	0x3db0c514	0.0863134
19	0xbe871cab	-0.2638906
20	0x3eb26ec1	0.34850124
21	0xbe387922	-0.18014959
22	0xbe40e3ea	-0.18836942
23	0x3e21587e	0.15756413
24	0xbe790ed3	-0.24322061
25	0xbdd7ad04	-0.10531047
26	0x3dbc392d	0.09190593
27	0x3d44f062	0.04808081
28	0xbeb8f486	-0.36124057
29	0xbd1dde74	-0.038542226
30	0x3d14f122	0.036362775
31	0x3e249b9a	0.16074982
32	0xbea90dc4	-0.33018315
33	0xbe60e0c0	-0.21960735
34	0x3e38c262	0.18042901
35	0x3eba9823	0.36444196
36	0x3eaeab69	0.3411515
37	0x3e5366a4	0.20644623
38	0x3e0ce435	0.13758929
39	0x3d297c6a	0.041378416
40	0x3ebf707e	0.37390512
41	0xbec29af3	-0.38008842
42	0xbd7ed38a	-0.062213458
43	0xbe8cbf64	-0.2748977
44	0xbc07bf5c	-0.00828537
45	0xbe4e8cb2	-0.20170859
46	0xbd8c6c64	-0.06856611
47	0xbe6d49ca	-0.2317268
48	0x3e9b6f2f	0.30358264
49	0xbe3ad1a7	-0.18244039
50	0x3e49d5df	0.19710492
51	0xbdb556f9	-0.08854479
52	0xbe4446fe	-0.19167706
53	0x3da101ae	0.078616485
54	0xbe0a14b3	-0.13484459
55	0xbe84e85a	-0.2595852
56	0xbdded8d6	-0.10881202
57	0x3e08e136	0.13367161
58	0x3cb780af	0.022400228
59	0xbe9dbcfd	-0.3080825
60	0xbccd462a	-0.02505787
61	0x3d8b2bee	0.06795488
62	0xbe75aa3d	-0.23990722
63	0x3c5cc01c	0.013473537
64	0x3e1286cf	0.14309238
65	0xbd507efb	-0.050902348
66	0x3dd89460	0.10575175
67	0x3ed1142e	0.40835708
68	0x3ec3683e	0.38165468
69	0xbe9fadc6	-0.31187266
70	0xbddafaf5	-0.106923975
71	0xbdc649a1	-0.09682012
72	0xbecec85d	-0.4038724
73	0xbd8f90a8	-0.07010013
74	0xbd4fcd2f	-0.050732788
75	0xbb1f4a9e	-0.002430595
76	0xbeb8af9c	-0.3607148
77	0x3d65abe2	0.056072123
78	0xbe8c3593	-0.27384624
79	0xbecd6d9f	-0.40122697
80	0xbe97c71d	-0.296441
81	0xbd828175	-0.06372348
82	0xbe384d9f	-0.1799836
83	0x3e85a901	0.26105502
84	0x3e95b6a3	0.29240903
85	0x3d9094cf	0.07059633
86	0x3dd16184	0.10223678
87	0xbe4d28dd	-0.2003512
88	0xbe1c26d8	-0.15249193
89	0xbea00fb1	-0.31261972
90	0x3dbd1c8c	0.092339605
91	0x3c661d20	0.01404503
92	0x3d9cf279	0.076634355
93	0xbdd075d4	-0.10178724
94	0x3cfa401e	0.030548152
95	0xbe842f77	-0.25817463
96	0x3ecbdfbe	0.3981914
97	0x3ea7c2bc	0.32765758
98	0xbea446a8	-0.32085156
99	0xbe9f485f	-0.31109902
100	0xbebc44e4	-0.3677131
101	0xbe11ad46	-0.14226255
102	0xbdf85639	-0.12125821
103	0x3e1b658a	0.15175453
104	0xbdac4ecd	-0.084134676
105	0xbbffc28c	-0.007805174
106	0xbe68f109	-0.22748198
107	0x3e93dbda	0.2887867
108	0xbe757400	-0.23970032
109	0x3e8ae2ac	0.27126062
110	0xbe040a20	-0.12894487
111	0x3de772d0	0.113011956
112	0xbcd45b66	-0.025922488
113	0xbe47fc51	-0.19529845
114	0xbea23392	-0.3167997
115	0x3eaeeb9f	0.3416414
116	0x3ebac528	0.36478543
117	0xbe742c88	-0.23845112
118	0x3eba0623	0.36332807
119	0xbde4148e	-0.11136733
120	0x3ea32536	0.31864327
121	0xbe8dbde7	-0.27683946
122	0x3e44ceeb	0.19219558
123	0xbe62cbb3	-0.22148018
124	0x3e464cc7	0.19365226
125	0xbe8a2e83	-0.2698861
126	0xbe80d461	-0.25162032
127	0x3eae01e7	0.33985826
128	0x3e9b70c3	0.30359468
129	0x3e2626fa	0.16225806
130	0x3d394af1	0.045237485
131	0x3e50a1df	0.20374249
132	0xbe62bee0	-0.22143126
133	0xbeba0b3e	-0.36336702
134	0xbe2d060b	-0.16896836
135	0x3df29893	0.118455075
136	0x3e46a4e1	0.19398834
137	0x3d65734d	0.056018163
138	0xbe6b802f	-0.22998117
139	0x3ece3383	0.40273675
140	0xbcf35cb0	-0.029707283
141	0xbd698f41	-0.057021383
142	0xbc93c149	-0.018036501
143	0x3ea85e78	0.32884574
144	0x3ebd42f4	0.36965144
145	0x3e9df0eb	0.30847868
146	0x3ec2a804	0.3801881
147	0xbeab504e	-0.33459705
148	0xbdd260a8	-0.10272342
149	0xbe9e4455	-0.30911508
150	0x3e27e6d0	0.16396642
151	0xbe6b149a	-0.22957078
152	0x3e9d3b54	0.30709326
153	0xbe2d920a	-0.1695024
154	0xbe88f249	-0.2674735
155	0x3e8064da	0.25076944
156	0xbe0dc1f3	-0.13843517
157	0xbeaf5eb4	-0.3425194
158	0x3ece5ec5	0.40306678
159	0xbe64003a	-0.22265711
160	0xbe8ed3c8	-0.2789595
161	0xbe9a2b0a	-0.3011096
162	0xbe73fffe	-0.23828122
163	0x3ecbe1d3	0.39820728
164	0xbe9f004e	-0.3105492
165	0x3d9d8fa3	0.07693412
166	0xbea38a85	-0.3194162
167	0xbcbf0f4b	-0.023322722
168	0x3ebff48b	0.3749126
169	0xbdc6a334	-0.09699097
170	0x3ed362f9	0.41286448
171	0x3e09fac8	0.13474572
172	0x3ecdb075	0.4017369
173	0xbe1e840a	-0.15480056
174	0xbec0b9d6	-0.37641782
175	0xbe9982a8	-0.29982495
176	0xbe265be7	-0.16245995
177	0xbe87df19	-0.26537398
178	0xbe17d025	-0.14825495
179	0xbe659bfd	-0.22422786
180	0xbe779c79	-0.24180783
181	0x3e2a4a58	0.16629922
182	0xbe7c66bd	-0.24648567
183	0xbe955126	-0.29163474
184	0x3eba7df7	0.3642423
185	0xbeaa269e	-0.33232588
186	0x3eae2f35	0.3402039
187	0xbeae9f16	-0.34105748
188	0xbcdd6bdc	-0.02702897
189	0x3d637e26	0.055540226
190	0xbec978ab	-0.39349875
191	0x3de90b41	0.113791
192	0x3e08cb01	0.1335869
193	0x3c86495f	0.016392408
194	0xbdf634d8	-0.12021798
195	0x3d201806	0.03908541
196	0x3dfb297f	0.12263774
197	0x3e1565ae	0.14589569
198	0x3de8584b	0.113449655
199	0xbde9aedc	-0.11410305
200	0xbe8a4fdf	-0.27014062
201	0x3e6962e8	0.22791636
202	0x3e1c8636	0.15285572
203	0xbdc637d4	-0.09678617
204	0x3e29d645	0.16585644
205	0xbe734664	-0.2375732
206	0x3ebabd9f	0.36472794
207	0x3e726e1b	0.23674814
208	0x3e1227e9	0.14273037
209	0x3ea6ce18	0.32579112
210	0x3e98e75a	0.29864007
211	0xbe8ce05d	-0.27514926
212	0x3ed1920f	0.40931746
213	0x3ec69742	0.38787276
214	0xbe2726d7	-0.1632341
215	0xbe873f30	-0.26415396
216	0xbe8b56cb	-0.27214655
217	0xbe55f73e	-0.20895097
218	0x3c135f04	0.008994821
219	0xbe175937	-0.14780127
220	0xbe7f42ab	-0.24927776
221	0x3eb58171	0.35450318
222	0x3d94a412	0.072578564
223	0x3dcff018	0.10153216
224	0xbe968c8e	-0.2940411
225	0x3ec35b03	0.38155374
226	0x3d02842e	0.031864338
227	0x3c46742e	0.01211266
228	0xbec4a193	-0.3840452
229	0x3eb1329d	0.34608927
230	0xbe5c8336	-0.21534428
231	0x3eac01fe	0.3359527
232	0xbe818c24	-0.2530223
233	0xbd9268d9	-0.07148904
234	0x3b3906ed	0.0028232888
235	0xbd6da890	-0.05802208
236	0xbe0c5843	-0.13705544
237	0x3d056c81	0.03257418
238	0x3ea846e2	0.3286658
239	0xbec44988	-0.3833735
240	0xbd90b906	-0.070665404
241	0xbeb655f7	-0.3561246
242	0x3e04ec28	0.12980711
243	0xbea3bdd4	-0.31980765
244	0xbea4bc75	-0.3217503
245	0xbe5bd87b	-0.214693
246	0xbeacfa9c	-0.3378495
247	0x3d116fd5	0.035507042
248	0x3e83e8df	0.25763604
249	0xbdc2eaa6	-0.09517412
250	0xbec37d38	-0.38181472
251	0x3e399536	0.18123326
252	0x3ce166ed	0.0275149
253	0xbe914429	-0.28372315
254	0x3e10a88f	0.141268
255	0xbd843471	-0.06455315

conv1.bias f4 [128]
0	0x3c6b0166	0.014343595
1	0xbe8a0537	-0.26957104
2	0xbebee296	-0.37282246
3	0xbe326c5a	-0.17424145
4	0x3dce11f1	0.10062016
5	0x3ec2e855	0.3806788
6	0xbdee7d84	-0.11645034
7	0x3e194ff9	0.14971913
8	0xbec7bafe	-0.3900985
9	0xbea55c10	-0.322968
10	0x3e92672f	0.28594348
11	0xbe424076	-0.18969902
12	0x3d925cb4	0.07146588
13	0x3ea1a87d	0.3157386
14	0xbec77bba	-0.38961583
15	0x3deadd68	0.11468011
16	0x3dfac6b8	0.12244934
17	0x3e12544c	0.14289969
18	0x3e8cd907	0.2750933
19	0x3e0c2f34	0.13689882
20	0x3db85bff	0.09001922
21	0x3d9de646	0.07709937
22	0xbe95aa58	-0.29231524
23	0x3d6eb95e	0.05828225
24	0x3e129b14	0.1431697
25	0xbea9c4e3	-0.33158025
26	0x3e548134	0.20752412
27	0x3ea63a0a	0.32466155
28	0xbe544161	-0.20728065
29	0x3e9c2024	0.3049327
30	0xbe5ab0ca	-0.21356502
31	0x3e3aa407	0.18226634
32	0x3ea8b2bb	0.3294886
33	0x3ea01b62	0.3127089
34	0x3eb8d8b8	0.36102843
35	0x3e689a99	0.22715224
36	0xbeaffe6b	-0.34373793
37	0xbe66078a	-0.22463813
38	0x3eccd520	0.4000635
39	0x3e8fd537	0.28092358
40	0xbd020e80	-0.03175211
41	0x3eaf7fe8	0.34277272
42	0x3d8701e5	0.06592158
43	0x3dc0f564	0.094218045
44	0x3ec55872	0.3854404
45	0xbed21400	-0.41030884
46	0xbe84ff43	-0.25976
47	0x3ea0869f	0.31352708
48	0xbda5675b	-0.08076354
49	0x3ecccbae	0.39999145
50	0x3e7c1faa	0.24621454
51	0x3e7ee928	0.2489363
52	0x3e5c679e	0.21523902
53	0x3ea4c453	0.32181033
54	0x3e1af176	0.15131173
55	0x3e3bb169	0.18329395
56	0xbecab785	-0.3959314
57	0x3e655c7f	0.22398566
58	0x3e777f6e	0.24169704
59	0x3eac53d0	0.33657694
60	0xbec01f0e	-0.37523693
61	0x3ec63597	0.3871276
62	0x3e9dc410	0.30813646
63	0xbddf753b	-0.10911032
64	0xbe7593c2	-0.23982146
65	0x3e17f5b8	0.14839828
66	0x3e709eff	0.23498152
67	0x3eca760c	0.39543188
68	0xbe6d130a	-0.23151794
69	0x3eb16fdf	0.34655663
70	0x3db17534	0.08664933
71	0x3eab71a3	0.33485135
72	0x3e3c8f5a	0.1841406
73	0xbe03c38d	-0.12867565
74	0x3d896119	0.06707973
75	0xbdd122c8	-0.10211712
76	0xbe91e1a1	-0.28492454
77	0x3b7282b5	0.0037004177
78	0x3eb9ccc7	0.36289045
79	0xbe5df87f	-0.21676825
80	0x3e0780cd	0.13232727
81	0x3ec907fb	0.392639
82	0xbe1ec25e	-0.15503833
83	0x3d9ffbf1	0.07811726
84	0xbeaa69d4	-0.33283865
85	0xbda4d943	-0.08049252
86	0xbe4a359c	-0.19747013
87	0x3e9fce47	0.31212065
88	0xbe3a6155	-0.18201192
89	0x3df0459f	0.11732029
90	0xbeb48d93	-0.35264263
91	0x3e9b1846	0.30291957
92	0x3e948fd6	0.29015988
93	0xbda1f1c1	-0.07907439
94	0x3dd69c48	0.10479027
95	0xbcc10a26	-0.02356441
96	0x3eba2765	0.3635818
97	0x3b821990	0.0039703324
98	0xbe49d402	-0.19709781
99	0xbecdd43e	-0.4020099
100	0x3e544774	0.20730382
101	0xbeadf292	-0.3397413
102	0x3d9e35cf	0.07725107
103	0x3d9a0d95	0.07522122
104	0x3e06cd4e	0.13164255
105	0x3d58ff12	0.05297763
106	0xbe0db0cf	-0.13836978
107	0x3e741143	0.2383471
108	0xbdf6091d	-0.12013457
109	0xbed198cd	-0.4093689
110	0x3e92ce54	0.2867304
111	0xbb1718d9	-0.0023055582
112	0xbeadb604	-0.3392793
113	0x3e050e24	0.12993675
114	0xbe8e4792	-0.2778898
115	0xbe58699d	-0.21134038
116	0xbe8e41e8	-0.27784657
117	0xbe54e478	-0.20790279
118	0x3ec2ff80	0.38085556
119	0xbe769e9b	-0.2408394
120	0x3eb12abe	0.34602922
121	0x3ec6cf72	0.38830143
122	0xbdff1abf	-0.12456273
123	0x3e96970c	0.29412115
124	0x3ea05028	0.31311154
125	0xbc2d40fe	-0.010574577
126	0xbe73b66b	-0.23800056
127	0xbd93a083	-0.072083496

conv2.weight f4 [6, 128, 1]
0	0xbbe72940	-0.007054478
1	0x3d4647ee	0.04840844
2	0xbcc5034c	-0.024049424
3	0xbceb0c19	-0.028692292
4	0xbda9972b	-0.08280786
5	0x3d2e5d6d	0.042569567
6	0x3b8efc62	0.0043635825
7	0xbda68b12	-0.08131994
8	0x3d514ea4	0.05110039
9	0x3d9c5e4d	0.07635174
10	0x3d7eb08e	0.062180094
11	0x3bc4d8d3	0.006007293
12	0x3ce79805	0.02827073
13	0xbb748e48	-0.0037316252
14	0xbcf86361	-0.030320825
15	0x3bf23666	0.0073917387
16	0xbca54db4	-0.020178653
17	0x3bff9af0	0.0078004524
18	0x3c0181dd	0.007904497
19	0xbd1106d2	-0.035406895
20	0xbd27a3fd	-0.040927876
21	0x3d317695	0.04332598
22	0x3da18d05	0.078882255
23	0xbd9aaa29	-0.07551987
24	0xbd1381d2	-0.03601248
25	0xbc8e2a42	-0.017354134
26	0xbd7fdf14	-0.062468603
27	0x3d97f873	0.07420435
28	0xbda51bff	-0.080619805
29	0xbce1a606	-0.027544986
30	0x3d5da6c6	0.054114126
31	0x3d7033b0	0.058643043
32	0x3d123629	0.035696182
33	0x3d42f8d5	0.047600586
34	0x3ca9ddc9	0.020735638
35	0xbda805f2	-0.08204259
36	0xbdad0f9c	-0.08450243
37	0xbbef0436	-0.007294203
38	0x3cb17336	0.021661382
39	0x3cd32518	0.025774524
40	0xbcab758a	-0.02093007
41	0xbd030df0	-0.031995714
42	0xbd8328e4	-0.06404284
43	0xbda149e4	-0.07875422
44	0x3d8d9dd0	0.06914866
45	0x3d88c501	0.066782005
46	0x3d0112da	0.03151212
47	0xbc5d02d6	-0.013489446
48	0xbdacec30	-0.08443487
49	0xbd36ec6a	-0.044659056
50	0xbd5dd298	-0.054155916
51	0xbcc6fa6f	-0.024289338
52	0xbcd36089	-0.025802867
53	0x3db38659	0.08765859
54	0xbd6d1cfe	-0.057888977
55	0xbd402867	-0.04691353
56	0xbd9414e7	-0.07230549
57	0x3d884553	0.066538475
58	0xbc681a5d	-0.014166442
59	0xbd97bea3	-0.07409408
60	0xbd03cff4	-0.03218074
61	0xbcc05467	-0.023477746
62	0xbd5de530	-0.05417365
63	0xbce0fecc	-0.027465247
64	0xbc92199c	-0.017834477
65	0xbc1287bc	-0.008943494
66	0x3c270a0b	0.0101952655
67	0x3b8c49c5	0.004281255
68	0x3d4e7d7f	0.05041265
69	0x3da083bc	0.07837626
70	0x3c9482f6	0.018128853
71	0xbc81934d	-0.015817309
72	0xbd09b471	-0.033619348
73	0xbd8b4140	-0.06799555
74	0xbd2d1996	-0.04226073
75	0x3d5a8268	0.05334702
76	0x3d650ac3	0.055918466
77	0xbc0165c6	-0.0078978
78	0xbd93267b	-0.07185074
79	0x3d90cb79	0.07070059
80	0x3d008c1a	0.03138361
81	0xbcdf8bd6	-0.027288359
82	0x3d226475	0.039646585
83	0x3d553c0b	0.052059215
84	0xbcdd55c1	-0.02701843
85	0x3d8a7429	0.06760437
86	0x3d40a7ff	0.047035214
87	0xbd9d3c49	-0.07677514
88	0x3a1c7244	0.00059679546
89	0x3d8b28d2	0.06794895
90	0x3d94b04b	0.07260188
91	0x3d32fa15	0.043695528
92	0x3d79baf3	0.060969304
93	0x3d9bc700	0.076063156
94	0xbd103fc6	-0.03521707
95	0x3d84d59e	0.06486057
96	0xbd653e80	-0.055967808
97	0xbd247fa0	-0.040160775
98	0xbc8b3929	-0.01699503
99	0x3d9e1ea6	0.077206895
100	0xbcc6cf5f	-0.024268804
101	0x3d679a57	0.056543674
102	0x3d9d413d	0.07678459
103	0xbd9bf169	-0.07614405
104	0x3d28a919	0.04117689
105	0x3d34aa2b	0.044107597
106	0x3d3b3ab8	0.045710295
107	0x3c79daab	0.015249888
108	0x3c89030d	0.016725088
109	0x3cc5508b	0.024086257
110	0x3c90adb8	0.01766096
111	0x3cf402e4	0.029786535
112	0xbda70b3e	-0.08156441
113	0xbd3fed83	-0.04685737
114	0x3c321cd0	0.010871127
115	0xbafc52a4	-0.0019250703
116	0xbd98ec8d	-0.074669935
117	0xbd8a0f01	-0.06741143
118	0xbd2f0219	-0.04272661
119	0xbd363c99	-0.044491384
120	0xbb8e3f54	-0.0043410454
121	0x3d9f766e	0.077862605
122	0x3d83cf67	0.06436043
123	0x3d0ddad7	0.03463253
124	0x3da17528	0.07883674
125	0xbc96fb9a	-0.01843052
126	0x3da9ab82	0.08284666
127	0xbb97abce	-0.004628635
128	0xbccbafa2	-0.024864022
129	0x3d90c8c9	0.07069547
130	0x3cc7ed49	0.024405139
131	0x3d27ef0e	0.040999465
132	0x3c8e8897	0.017399115
133	0xbcef51da	-0.029213835
134	0xbda2b651	-0.0794493
135	0x3d025395	0.03181799
136	0x3db0a9e8	0.08626157
137	0xbd371440	-0.044697046
138	0xb9277f13	-0.000159737
139	0xbd8b7d9d	-0.06811068
140	0x3da071de	0.078342184
141	0x3da4dcb5	0.08049909
142	0x3d43e5bc	0.047826514
143	0x3cc943cf	0.024568466
144	0xbd314086	-0.043274425
145	0xbd9bd95f	-0.076098196
146	0xbc11c267	-0.008896447
147	0xbda794c0	-0.08182669
148	0xbcceb560	-0.02523297
149	0x3d8e07d6	0.06935088
150	0xbd364aaa	-0.0445048
151	0x3ca04da8	0.01956828
152	0x3ccc9a5b	0.024975946
153	0xbd25d538	-0.040486544
154	0x3c941f0b	0.018081209
155	0xbcd03c16	-0.025419276
156	0xbcb295cb	-0.021799942
157	0x3da38260	0.079838514
158	0xbd02589e	-0.031822793
159	0xbc42cb63	-0.0118893115
160	0x3d4ee112	0.050507613
161	0xbd7f82b8	-0.062380522
162	0x3db2449e	0.08704494
163	0xbd4d0cc8	-0.050061017
164	0x3d84f99b	0.06492921
165	0xbba4bb3d	-0.0050272034
166	0x3d5b4bda	0.053539135
167	0xbca062c8	-0.019578353
168	0x3d868779	0.06568808
169	0xbcaa63fb	-0.020799628
170	0xbd88683d	-0.06660507
171	0x3db3912f	0.08767926
172	0x3d7b9ade	0.06142699
173	0xbc4708d0	-0.012148097
174	0x3d9ede3e	0.07757233
175	0x3da22ba7	0.07918482
176	0xbda673ef	-0.08127581
177	0x3ace752d	0.0015751474
178	0x3d917016	0.07101457
179	0x3c8fc4de	0.017549928
180	0x3d26c635	0.04071637
181	0x3ccce589	0.025011795
182	0xbd15b349	-0.036547933
183	0x3c269a97	0.010168693
184	0xbb45f6a3	-0.0030206821
185	0xbd818f41	-0.06326152
186	0xbcaa6a4d	-0.020802641
187	0x3d3d14f2	0.046162553
188	0xbcc4d29f	-0.024026213
189	0xbd675bf4	-0.056484178
190	0xbd73e1d0	-0.059541523
191	0x3c994221	0.01870829
192	0x3dbcce23	0.09219005
193	0xbc9844dc	-0.018587522
194	0xbd8d3918	-0.068956554
195	0xbca6e735	-0.02037392
196	0xbd9021f8	-0.07037729
197	0x3da4684e	0.08027707
198	0xbad0b244	-0.0015922268
199	0x3d7efab8	0.062250823
200	0xbc981f43	-0.018569594
201	0xbc86a872	-0.016437743
202	0x3c81aaf1	0.015828582
203	0x3d2e97a3	0.04262508
204	0x3d7b5f79	0.061370347
205	0xbd3653ee	-0.044513635
206	0xbd08bdcc	-0.03338413
207	0xbd840163	-0.06445577
208	0xbda3d349	-0.07999284
209	0x3cb1ede5	0.021719882
210	0x3dbe156f	0.09281432
211	0x3dace149	0.08441407
212	0x3da0566e	0.07828985
213	0xbd34ea14	-0.044168547
214	0x3d8d1d9e	0.06890415
215	0x3d5e2726	0.054236554
216	0xbd69757b	-0.056996804
217	0xbd2afd85	-0.04174568
218	0x3a107124	0.00055100233
219	0xbd48b5e4	-0.04900159
220	0x3d9896fd	0.07450674
221	0xbdaae52f	-0.083444946
222	0x3b312e53	0.0027035668
223	0x3d37fb9d	0.04491769
224	0x3d17f356	0.037097298
225	0xbcec570f	-0.028850107
226	0xbdb7d922	-0.08976962
227	0xbd16e32c	-0.03683774
228	0xbbdd478d	-0.0067529143
229	0x3d4454a2	0.047932275
230	0xbda3890b	-0.07985123
231	0xbd45e79e	-0.04831659
232	0x3c1b2431	0.009469078
233	0x3da0a31c	0.07843611
234	0xbcc436f4	-0.023951985
235	0xb9a14b13	-0.00030764248
236	0xbd508e99	-0.05091724
237	0xbd0d4cba	-0.034497
238	0x3d6984ed	0.057011534
239	0xbd99fa10	-0.07518399
240	0x3cabe9f9	0.02098559
241	0x3d18f5cf	0.037343796
242	0xbb99d5aa	-0.00469466
243	0x3d7a5862	0.061119445
244	0xbccff513	-0.025385415
245	0xbd83aff7	-0.06430047
246	0xbd520d5a	-0.051282264
247	0xbd5893fd	-0.052875508
248	0xbd8100e5	-0.06298999
249	0x3d729694	0.059225634
250	0xbd92690f	-0.071489446
251	0xbc4b6296	-0.012413641
252	0x3cbfe5bc	0.023424976
253	0x3d85b97d	0.0652952
254	0x3d4f6ca0	0.050640702
255	0xbd9cb1a5	-0.076510705

conv2.bias f4 [6]
0	0xbd152a8c	-0.03641753
1	0x3d3e38b9	0.046440814
2	0x3b2aaab6	0.0026041693
3	0xbd504f91	-0.05085713
4	0xbd499b5d	-0.04922043
5	0x3d2ba374	0.041903928

encoder.self_attn.in_proj_weight f4 [384, 128]
0	0xbdccad5e	-0.09994005
1	0x3d5a5266	0.053301238
2	0xbdaf7a74	-0.08568278
3	0x3d39ac6f	0.04533046
4	0xbdbc9518	-0.09208125
5	0x3db03e62	0.086056486
6	0xbd76344b	-0.060108464
7	0x3db561b0	0.08856523
8	0xbdb24af0	-0.087056994
9	0x3da99cd6	0.08281867
10	0x3ce29322	0.027658049
11	0xbdb75dd1	-0.08953441
12	0x3cc0d3fc	0.023538582
13	0x3db326eb	0.087476574
14	0x3d4e2130	0.05032462
15	0xbbea7668	-0.0071552284
16	0xbdc95908	-0.098314345
17	0xbddedb6c	-0.10881695
18	0xbde2228a	-0.11041744
19	0xbd7add77	-0.06124636
20	0x3cde2ada	0.027120043
21	0xbd1698d9	-0.03676686
22	0xbddb29d5	-0.10701338
23	0x3dc9647e	0.098336205
24	0xbc1f343a	-0.009717042
25	0xbcea98b7	-0.028637273
26	0x3d672302	0.05642987
27	0xbb5a8752	-0.0033344817
28	0xbd996e4e	-0.07491742
29	0x3d23a08e	0.03994804
30	0xbd41a53f	-0.04727673
31	0xbdb5a520	-0.08869386
32	0x3d950f8b	0.07278355
33	0xbdb1abd4	-0.08675352
34	0xbd8dcbd6	-0.06923644
35	0x3dcd62d2	0.10028614
36	0x3db4a2e2	0.0882013
37	0xbb085558	-0.0020802822
38	0xbd6ca17b	-0.057771187
39	0xbd8604ed	-0.06543908
40	0xbd8035e1	-0.062602766
41	0x3d742cf7	0.059613194
42	0xbca9e9fd	-0.020741457
43	0xbdc69787	-0.0969687
44	0x3d99ee05	0.07516102
45	0xbd700047	-0.058594014
46	0x3ced18fc	0.028942578
47	0xbda999b4	-0.0828127
48	0xbc493427	-0.0122805005
49	0x3d6f6017	0.058441248
50	0x3dc3777e	0.09544276
51	0xbda3aca3	-0.07991912
52	0xbd8d8bcd	-0.069114305
53	0x3d0b6492	0.03403146
54	0x3d451f6a	0.048125662
55	0x3d4fb1cb	0.050706666
56	0x3d015961	0.03157938
57	0xbcb978ed	-0.02264067
58	0x3d9177e4	0.071029454
59	0x3d9c0f71	0.07620133
60	0x3d8b17f0	0.06791675
61	0x3d7c371a	0.061575986
62	0xbc2bc9b8	-0.010485105
63	0xbd02626a	-0.031832136
64	0x3ddca005	0.10772709
65	0x3b314250	0.0027047582
66	0x3d06ad3c	0.032880053
67	0x3d6f3ac5	0.058405656
68	0xbd5b1db5	-0.053495128
69	0x3d9e1162	0.07718159
70	0x3d8e0403	0.06934359
71	0xbd3847b9	-0.044990275
72	0x3dba05b7	0.09083121
73	0xbbfcd18f	-0.007715411
74	0x3cb17f13	0.021667039
75	0xbd1282d9	-0.035769317
76	0x3cdbfb20	0.026853144
77	0xbdd08787	-0.101821
78	0x3d8fbf70	0.07018936
79	0xbd9e1c72	-0.07720269
80	0x3c9b77e3	0.018978065
81	0xbdbdf664	-0.09275511
82	0xbd1fff12	-0.039061613
83	0xbc629f2d	-0.013831896
84	0x3d452702	0.048132904
85	0x3de0af3c	0.10970923
86	0xbd631e8b	-0.05544905
87	0x3dbc8909	0.09205825
88	0x3d0e6479	0.034763787
89	0x3d922ac9	0.07137067
90	0xbd3b0054	-0.04565461
91	0xbd8620fa	-0.065492585
92	0xbd13f03a	-0.03611777
93	0xbb24ba55	-0.0025135477
94	0x3d2501ed	0.04028504
95	0x3dd70eb5	0.10500852
96	0xbcdd0da1	-0.026984038
97	0x3da96173	0.0827054
98	0xbd22a564	-0.03970851
99	0x3d753c6f	0.059872087
100	0xbdbf8a5f	-0.09352564
101	0x3d90d9d8	0.070728004
102	0xbcdbb77d	-0.026820892
103	0xbda6b27c	-0.08139512
104	0xbdbc23a9	-0.09186489
105	0x3d515c76	0.05111357
106	0x3d84afbc	0.06478831
107	0xbd2fc8f3	-0.04291625
108	0xbc8b2ef4	-0.016990162
109	0xbd86e29a	-0.065861896
110	0x3dd1250d	0.10212145
111	0x3d58739a	0.05284462
112	0xbd355412	-0.04426963
113	0xbcb21969	-0.021740632
114	0xbd9d05da	-0.07667132
115	0xbc6eb416	-0.014569303
116	0x3d26b9a9	0.040704403
117	0x3db70c34	0.089378744
118	0xbb4682dd	-0.0030290403
119	0x3d2e5608	0.042562515
120	0xbd121713	-0.035666537
121	0x3c5ccd9a	0.013476754
122	0xbdbb10d4	-0.09134069
123	0x3b3518b3	0.002763313
124	0x3d48d82f	0.049034294
125	0xbd7cde00	-0.061735153
126	0x3c9594ac	0.018259369
127	0xbdaebd09	-0.08532149
128	0x3c38e16b	0.011284213
129	0xbd73d510	-0.059529364
130	0xbb65b7b8	-0.0035052132
131	0x3d8b8072	0.068116084
132	0x3d7e41f0	0.0620746
133	0x3d8d05b1	0.06885851
134	0x3d5e4cfc	0.054272637
135	0x3d1b2d71	0.037885133
136	0x3dcdf4ac	0.10056433
137	0xbd459d40	-0.04824567
138	0xbd8ff48b	-0.07029065
139	0x3d9bbfc1	0.076049335
140	0xbbee108a	-0.007265155
141	0xbc49d7ec	-0.012319546
142	0x3d5ab940	0.053399324
143	0xbd7f0d35	-0.062268455
144	0x3d0de9e9	0.034646902
145	0x3dc3e7e1	0.09565712
146	0x3d8d51d8	0.06900376
147	0xbd9df891	-0.07713426
148	0xbcab9ca4	-0.020948716
149	0x3dda7001	0.10665894
150	0xbd068621	-0.03284276
151	0xbca7e036	-0.020492654
152	0x3d2a402c	0.041565105
153	0xbc80c949	-0.01572098
154	0xbc195837	-0.009359411
155	0xbdbe37d2	-0.09287991
156	0xbdcdf3d4	-0.10056272
157	0x3ddc9827	0.10771208
158	0xbdb74b02	-0.089498535
159	0xbce8cd3d	-0.028418178
160	0x3ca949fa	0.020665158
161	0xbdd04e26	-0.10171156
162	0x3cad6849	0.021167891
163	0x3d2c3759	0.04204497
164	0xbbb74572	-0.0055929953
165	0xbc839b66	-0.01606531
166	0x3dceaf43	0.10092022
167	0xbd7e0739	-0.062018607
168	0xbca8cdf3	-0.020606017
169	0xbda5b9d5	-0.08092085
170	0x3d91534f	0.07095968
171	0xbbb2cf50	-0.0054568425
172	0xbc401472	-0.011723625
173	0x3dc6c73a	0.09705968
174	0x3d332460	0.04373586
175	0xbcb9e6d4	-0.022693075
176	0xbc97844a	-0.018495698
177	0xbdcc4e51	-0.09975875
178	0x3cda809c	0.026672654
179	0x3cc833b2	0.024438713
180	0xbc122e18	-0.008922122
181	0xbd535ed3	-0.051604103
182	0x3ca09eba	0.019606937
183	0xbdb5673f	-0.08857583
184	0x3cea2a51	0.028584631
185	0x3d9794b8	0.07401413
186	0xbd9db8c4	-0.07701257
187	0xbdda5ca6	-0.106622025
188	0xbcbe4c1a	-0.023229647
189	0xbd70583f	-0.058677908
190	0x3b89f9ea	0.0042107003
191	0xbd5ced31	-0.05393714
192	0x3dbee2f0	0.09320629
193	0x3dbb9a06	0.09160237
194	0xbd2857c1	-0.041099314
195	0xbddbb3a2	-0.107276216
196	0xbd49181d	-0.04909526
197	0x3d1156ee	0.035483293
198	0xbdc44996	-0.09584348
199	0xbd0fe2d9	-0.03512845
200	0xbd59884b	-0.053108495
201	0x3d9b4710	0.075819135
202	0xbdb8181a	-0.08988972
203	0xbd0f9819	-0.03505716
204	0xbc9bff4d	-0.019042635
205	0xbd5c6b32	-0.053813167
206	0x3d90bbf4	0.07067099
207	0x3d8dead7	0.06929558
208	0xbd88ed6e	-0.06685911
209	0xbd1e8fb1	-0.038711254
210	0x3d9f154f	0.07767736
211	0xbdc3deea	-0.09564002
212	0xbc9e3586	-0.019312631
213	0xbd87aad4	-0.0662438
214	0x3c14fd1a	0.009093547
215	0xbd84a2bd	-0.06476352
216	0xbdccdcd9	-0.10003061
217	0xbdc3b64e	-0.09556256
218	0x3dc64fd4	0.09683195
219	0xbd66c0a5	-0.056336064
220	0x3dcfa29b	0.101384364
221	0xbcdd7bea	-0.027036626
222	0xbd8683aa	-0.06568082
223	0x3d358474	0.04431577
224	0x3c00d9ee	0.0078644585
225	0xbc839326	-0.016061377
226	0x3de260e7	0.11053639
227	0x3daa264f	0.08308088
228	0x3c157b70	0.009123668
229	0x3d338ab7	0.04383346
230	0xbda4e349	-0.08051164
231	0x3d321889	0.04348043
232	0x3c8eb055	0.017418066
233	0x3d26cf59	0.040725086
234	0x3cc52701	0.02406645
235	0x3d800898	0.06251639
236	0xbd992d9d	-0.07479403
237	0xbc87aadc	-0.016560964
238	0xbd12d115	-0.035843927
239	0x3d65d160	0.05610788
240	0x3d4f52df	0.05061614
241	0xbc043188	-0.00806845
242	0x3dc44fd7	0.09585541
243	0x3d945a56	0.07243793
244	0x3d72cdf2	0.059278436
245	0x3dd40546	0.10352568
246	0xbd90595f	-0.07048296
247	0x3d3e0104	0.046387687
248	0xbdc85945	-0.09782652
249	0xbd312ee7	-0.04325762
250	0x3d620e12	0.0551892
251	0x3d08d298	0.033403963
252	0xbccd2042	-0.025039796
253	0xbd0b9bf7	-0.034084287
254	0xbd8441e8	-0.06457883
255	0x3dd4ceac	0.10390982

encoder.self_attn.in_proj_bias f4 [384]
0	0x3a405757	0.00073372334
1	0xbc0199d1	-0.007910208
2	0x3b0b1567	0.0021222474
3	0xbc0b7362	-0.008511396
4	0xbb3b8dac	-0.0028618379
5	0xbbb53b65	-0.005530762
6	0xbb575981	-0.0032859745
7	0x39c8542f	0.00038209694
8	0xba82d8cb	-0.0009982822
9	0xbb983699	-0.0046451804
10	0xbba7bc73	-0.0051189004
11	0x3b8a0851	0.004212417
12	0x3be6ca2b	0.0070431433
13	0xbc8e8490	-0.017397195
14	0xba14f461	-0.0005682167
15	0x3beded54	0.0072609577
16	0xbb882a20	-0.0041554123
17	0xbb226baa	-0.002478341
18	0xbc0d0d51	-0.008609132
19	0x3bb7cc4d	0.0056090713
20	0x3a91d763	0.0011126812
21	0x3b75887b	0.0037465382
22	0xbbc07d29	-0.0058742953
23	0xbc39723c	-0.0113187395
24	0xbbdd4676	-0.0067527844
25	0x3b677aa7	0.003532091
26	0x3bcdd8bf	0.0062819417
27	0xbb14ee67	-0.0022725107
28	0xb9997a27	-0.00029273445
29	0x3c139737	0.00900822
30	0xb907b67b	-0.00012942583
31	0xbbeac5b0	-0.0071646795
32	0x3adec14f	0.0016994866
33	0xb7b2a88a	-2.1297736e-05
34	0xba43f692	-0.00074754015
35	0x3b2c0401	0.0026247504
36	0xb9813ad8	-0.0002464864
37	0xba931b11	-0.0011223276
38	0x3a057326	0.0005090706
39	0xbb1095f3	-0.0022062033
40	0x3aec96df	0.0018050334
41	0x380a08c8	3.2909942e-05
42	0xbaf55a37	-0.0018718903
43	0x37178d47	9.033195e-06
44	0xbb12e7a8	-0.002241591
45	0x39b8ffac	0.00035285705
46	0xbb48ff5c	-0.0030669784
47	0x3a9a877c	0.0011789645
48	0xbc01c053	-0.007919389
49	0xbbe89920	-0.007098332
50	0x3b6262ba	0.003454371
51	0x3ad5d6d2	0.0016314632
52	0x3be7714d	0.007063067
53	0x3b90d531	0.0044199456
54	0x3b40100f	0.0029306447
55	0xbb09272f	-0.0020927896
56	0x3b5db801	0.0033831599
57	0xbb3f9311	-0.0029231946
58	0xbc0aad2f	-0.008464142
59	0xb7dd6ae4	-2.6395028e-05
60	0xba51f4a0	-0.0008009169
61	0x391a5ab1	0.0001472037
62	0xba2717fe	-0.00063741195
63	0xbb1b368b	-0.0023683633
64	0x3cab572c	0.02091559
65	0x3cd9c68e	0.026583936
66	0xbbd96667	-0.0066345218
67	0xbc6adaa6	-0.014334356
68	0xbc80b772	-0.015712474
69	0x3b9b1897	0.004733156
70	0x3c2e01c2	0.010620536
71	0xbc0e369a	-0.00868001
72	0xbc6be02f	-0.014396711
73	0xbc92c354	-0.017915405
74	0xbc1ce51f	-0.009576111
75	0x3c35e5af	0.011102124
76	0xbc59bbb7	-0.013289384
77	0x3c37113a	0.011173541
78	0x3c585235	0.013203193
79	0x3bfb8466	0.0076756952
80	0x3b616b64	0.0034396285
81	0x3c300415	0.010743161
82	0x3a8b0d4d	0.0010608822
83	0x3a726963	0.0009247271
84	0xba9701e1	-0.0011520946
85	0x3b9b7a5c	0.004744811
86	0x3a44e79d	0.000751132
87	0xba8c28b4	-0.0010693283
88	0x3a1ae31d	0.00059084763
89	0xbbcccb03	-0.006249787
90	0xbb82ccd6	-0.0039917035
91	0x3b3ce64f	0.0028823798
92	0x3aaf5121	0.0013375619
93	0xb9954ac4	-0.000284752
94	0x39b54ae2	0.00034578802
95	0x3a2e8b77	0.0006658355
96	0xbb5adf5c	-0.0033397293
97	0xbc1aa308	-0.009438284
98	0xbb241e8d	-0.0025042624
99	0x3b3bfb63	0.0028683774
100	0xbba8b78c	-0.0051488336
101	0x3ad30c8d	0.0016101763
102	0xbb5e314d	-0.0033903897
103	0x3b99c591	0.004692741
104	0xbba7b0dd	-0.0051175193
105	0xbbb17b22	-0.00541629
106	0x3b196f7a	0.0023412392
107	0x3adac4f7	0.001669078
108	0x3b720457	0.0036928856
109	0x3be5a2f0	0.007007949
110	0x3a8e2594	0.0010844939
111	0x3b3b97aa	0.0028624334
112	0xba3f64b7	-0.00073010795
113	0xba3efda8	-0.00072857225
114	0xbaa45f31	-0.0012540576
115	0x3ab32527	0.0013667688
116	0xba8f5383	-0.0010934923
117	0xba97c3ef	-0.0011578779
118	0xbaa33c7d	-0.001245394
119	0x3ab82a74	0.0014050738
120	0x3acdd34b	0.0015703229
121	0xba8edc60	-0.0010899417
122	0x398b1112	0.00026524864
123	0xbabdd1cb	-0.0014482079
124	0x3a8fd68e	0.0010973976
125	0xba9333d4	-0.0011230656
126	0xb8d80ccb	-0.000103020655
127	0x3ab8c332	0.0014096259
128	0x378aaf59	1.6532535e-05
129	0xb76d1525	-1.4131224e-05
130	0xb796a5c0	-1.7958577e-05
131	0xb73b0fa9	-1.1149715e-05
132	0x36d9258c	6.471475e-06
133	0x367c10a1	3.7560606e-06
134	0x37839b0c	1.5688616e-05
135	0xb6c72513	-5.934978e-06
136	0x35b07876	1.3148081e-06
137	0x36f81ee2	7.394571e-06
138	0x3770dcb0	1.4356498e-05
139	0xb5a8aad6	-1.2566695e-06
140	0xb58da7ad	-1.0554119e-06
141	0xb584e59e	-9.901594e-07
142	0x36b2c714	5.327989e-06
143	0xb6debc1e	-6.6380153e-06
144	0x37fcb305	3.0124103e-05
145	0xb79af520	-1.8472376e-05
146	0xb79d6c19	-1.8766195e-05
147	0xb84339a3	-4.65453e-05
148	0x3720be1b	9.5810055e-06
149	0x37bb7058	2.2344451e-05
150	0x3767f828	1.3826451e-05
151	0x3694b124	4.4313656e-06
152	0xb7b180f2	-2.116009e-05
153	0xb778b333	-1.4823675e-05
154	0xb77e6b8d	-1.5164621e-05
155	0xb604512e	-1.9716786e-06
156	0x37068166	8.01715e-06
157	0xb73236ea	-1.0622412e-05
158	0x377ce702	1.5074156e-05
159	0x37f8559e	2.9603772e-05
160	0x362969b6	2.5244494e-06
161	0xb62d74ad	-2.5846923e-06
162	0xb66e2786	-3.548777e-06
163	0x369993d9	4.576967e-06
164	0x36bb1b13	5.576186e-06
165	0xb751e1b9	-1.2509926e-05
166	0x35977793	1.1285177e-06
167	0x370715c7	8.0516975e-06
168	0x35c3a9b1	1.4578019e-06
169	0xb6b0de19	-5.2710643e-06
170	0xb78daf48	-1.6890132e-05
171	0x3577525b	9.2134513e-07
172	0xb768f6c4	-1.3885732e-05
173	0x3682702c	3.8873604e-06
174	0xb69fe736	-4.7654858e-06
175	0xb64e9380	-3.0782248e-06
176	0xb7865bb3	-1.6016746e-05
177	0x379b2f38	1.8499428e-05
178	0xb624d8b3	-2.456404e-06
179	0x37b260aa	2.1264266e-05
180	0x354cc905	7.6288444e-07
181	0xb7ef15ab	-2.850111e-05
182	0x374224b5	1.1571848e-05
183	0xb6e71774	-6.887067e-06
184	0x372c7987	1.0280294e-05
185	0xb6b42ba0	-5.3694966e-06
186	0x36715ee0	3.5967023e-06
187	0xb6ef2a58	-7.1276845e-06
188	0xb7184e48	-9.078132e-06
189	0x3623a7d0	2.4386572e-06
190	0x34b30cce	3.3350665e-07
191	0xb7b56322	-2.1623044e-05
192	0xb8a0b38b	-7.662837e-05
193	0x365ce455	3.2915461e-06
194	0xb7f674a9	-2.937981e-05
195	0x36a1a17d	4.8169736e-06
196	0x38c1566c	9.2190545e-05
197	0xb82fe721	-4.1938507e-05
198	0xb897aa71	-7.231988e-05
199	0x37f00343	2.8611748e-05
200	0x3879fca9	5.9601534e-05
201	0x37d6df33	2.5614723e-05
202	0xb868af48	-5.5476354e-05
203	0x378af37e	1.6564267e-05
204	0xb644c08a	-2.9318348e-06
205	0xb8b4c5c6	-8.619907e-05
206	0xb7eb547e	-2.8053528e-05
207	0x37eeef2b	2.8483182e-05
208	0xb7925852	-1.7445684e-05
209	0xb6f2ebe8	-7.239625e-06
210	0x370012ab	7.633741e-06
211	0xb84246de	-4.6319205e-05
212	0x373fc079	1.1429301e-05
213	0xb7cc2c60	-2.4339359e-05
214	0x35835466	9.784824e-07
215	0x38069418	3.2086013e-05
216	0xb73e571e	-1.1345166e-05
217	0x37472e09	1.1872043e-05
218	0x37ff64c4	3.0445291e-05
219	0x37da7587	2.6042353e-05
220	0x382f1d5a	4.1750587e-05
221	0x38020153	3.099565e-05
222	0x37f63916	2.9352068e-05
223	0xb814b267	-3.54521e-05
224	0x37f36d7d	2.9018842e-05
225	0xb81b2f32	-3.6998834e-05
226	0x37c98df4	2.402717e-05
227	0xb84c9c1e	-4.8782786e-05
228	0x37679cd3	1.3805186e-05
229	0x377a355e	1.4913587e-05
230	0x37af4929	2.0895694e-05
231	0x374014c4	1.1448927e-05
232	0x3889bcec	6.5678585e-05
233	0x38703327	5.72681e-05
234	0x388f2422	6.8255016e-05
235	0x3814975f	3.5426925e-05
236	0xb87069d6	-5.7319026e-05
237	0x37763593	1.4675216e-05
238	0x37590fa8	1.2937853e-05
239	0xb7d20678	-2.5036963e-05
240	0x37bd5d68	2.2574051e-05
241	0x350c45ab	5.2255444e-07
242	0x370151e8	7.7080695e-06
243	0xb73a15f8	-1.1091579e-05
244	0xb76c269a	-1.4075684e-05
245	0x36a900d5	5.0366893e-06
246	0xb73a731a	-1.1113263e-05
247	0xb72bbbf1	-1.0236153e-05
248	0xb6f55f53	-7.312666e-06
249	0x3832414e	4.2499327e-05
250	0x3485a121	2.4890417e-07
251	0x3626a012	2.48291e-06
252	0xb4ec1739	-4.3975322e-07
253	0xb5bc52b4	-1.4031161e-06
254	0x364cdb54	3.0526035e-06
255	0xb75a57cd	-1.3014255e-05

encoder.self_attn.out_proj.weight f4 [128, 128]
0	0x3db21097	0.086945705
1	0x3c01436a	0.007889608
2	0x3ac2ec55	0.0014871458
3	0x3cff7eae	0.031188335
4	0x3be1b538	0.006888058
5	0x3ca60e2b	0.020270428
6	0x3db20491	0.08692277
7	0x3d509843	0.050926458
8	0x3d1c4018	0.038147062
9	0xbb9cbec3	-0.0047834828
10	0x3d86c905	0.0658131
11	0x3d90536c	0.070471615
12	0x3b90c0c1	0.0044175093
13	0x3d431164	0.047624007
14	0xbc9ed9e2	-0.019391004
15	0xbd1c9a9f	-0.038233396
16	0xbd851f1e	-0.06500076
17	0xbbf80cc6	-0.007569882
18	0xbd07f056	-0.033188187
19	0xbd6a2074	-0.057159856
20	0xbdb554ca	-0.08854063
21	0x3da1c9ae	0.078997955
22	0x3d14e741	0.036353353
23	0xbafbbcf2	-0.001920609
24	0x3d92d67b	0.07169815
25	0xbd850f21	-0.06497026
26	0x3bf97e45	0.0076139295
27	0x3d32dad1	0.04366571
28	0xbda287b7	-0.07936042
29	0xbd1a2997	-0.03763732
30	0xbd086a40	-0.033304453
31	0x3da514b4	0.080605894
32	0xbd71e602	-0.059057243
33	0x3c4bccaa	0.012438932
34	0xbd90f619	-0.070781894
35	0x3d7d3ada	0.061823703
36	0xbc86c590	-0.016451627
37	0xbd5feb08	-0.054667503
38	0xbaa0555a	-0.0012232468
39	0xbd7488df	-0.059700843
40	0xbb1bf85e	-0.0023799161
41	0x3d01f21a	0.031725027
42	0x3b6d22a5	0.003618398
43	0x3d9990c3	0.07498314
44	0x3d4efa5c	0.05053173
45	0x3d8d1d4c	0.068903536
46	0x3d45c2be	0.048281424
47	0x3ce0be23	0.027434414
48	0xbc6234e9	-0.01380656
49	0x3d9d89a6	0.0769227
50	0xbd548f23	-0.05189432
51	0x3db2ce86	0.087307975
52	0x3da304f1	0.07959927
53	0xbd8779af	-0.06615006
54	0xbd0d798a	-0.034539737
55	0x3da9c065	0.082886495
56	0x3ca339d3	0.019925034
57	0xbca91a4f	-0.020642428
58	0xbd9cc384	-0.07654479
59	0x3d35d8ee	0.044396333
60	0xbd84e373	-0.06488695
61	0xbd0ebd2a	-0.03484837
62	0x3d6ef2bc	0.05833696
63	0xbd92be2d	-0.071651794
64	0x3b749991	0.0037322978
65	0x3da9edeb	0.082973324
66	0x3ccb071d	0.024783665
67	0xbcd80b6a	-0.02637263
68	0x3cc5d3f5	0.02414892
69	0x3d4689ff	0.048471447
70	0x3c778ec9	0.015109726
71	0xbd8bccf6	-0.068262026
72	0x3d8a0667	0.067395024
73	0xbd1f7b8e	-0.03893619
74	0xbd598ff1	-0.05311579
75	0xbdb5109e	-0.0884106
76	0x3c396c38	0.011317305
77	0xbd2bacbb	-0.041912775
78	0xbdaf3fcc	-0.0855709
79	0x3d37bf48	0.044860154
80	0x3cb8dc04	0.02256585
81	0x3d8a8e1e	0.06765388
82	0x3d38cd31	0.04511756
83	0xbd55a351	-0.052157704
84	0x3c5ae06d	0.013359171
85	0xbd4f0706	-0.050543807
86	0xbcc9b48b	-0.024622222
87	0xbd20771e	-0.0391761
88	0xbda19cf6	-0.07891266
89	0xbc30bf03	-0.010787728
90	0x3d1661e6	0.036714457
91	0xbbe1786f	-0.006880812
92	0x3d32adec	0.043622896
93	0x3d90dd00	0.070734024
94	0x3da38fb9	0.07986397
95	0xbd375662	-0.044760115
96	0x3cf1edbe	0.02953231
97	0x3d81fa11	0.063465245
98	0xbbf659e3	-0.0075180396
99	0x3d2fa8c8	0.04288557
100	0xbd7c43fe	-0.06158828
101	0xbd41baa1	-0.047297124
102	0xbccbbe51	-0.024871023
103	0x3ce185cc	0.02752962
104	0x3bca4ca4	0.006173687
105	0x3da5f638	0.08103603
106	0x3d300d70	0.042981565
107	0x3bf3d53c	0.007441191
108	0x3d2ff342	0.042956598
109	0x3d183317	0.037158098
110	0x3d42f7b5	0.047599513
111	0xbcceb3dd	-0.02523225
112	0x3d547ea0	0.05187857
113	0xbd9ac7b9	-0.07557625
114	0xbd4d1820	-0.050071836
115	0x3cde4731	0.027133556
116	0xbdb201bd	-0.08691738
117	0xbda84165	-0.08215598
118	0x3d8e5f37	0.069517545
119	0xbd4b5ee4	-0.04965104
120	0xbd179db3	-0.037015628
121	0xbd2a84be	-0.0416305
122	0xbd2fedb8	-0.042951316
123	0x3d7685f6	0.06018635
124	0x3b205448	0.0024464298
125	0x3d826155	0.06366221
126	0xbd6813ee	-0.05665963
127	0xbbc19f6e	-0.005908898
128	0xbdb03b5f	-0.08605074
129	0xbd08bdde	-0.033384196
130	0xbcd68a7a	-0.026189078
131	0x3d3abc77	0.04558989
132	0x3ccecfee	0.025245633
133	0xbd693869	-0.056938563
134	0xbdab596b	-0.083666645
135	0x3d37cfb7	0.044875827
136	0x3c54ad96	0.012980839
137	0x3d08f545	0.033437032
138	0x3d7754a8	0.06038347
139	0xbd4c83df	-0.04993045
140	0xbdb8f226	-0.09030561
141	0x3d8c68d5	0.068559326
142	0x3d819214	0.0632669
143	0x3d02d13a	0.031937815
144	0xbd073e27	-0.033018257
145	0x3cb3a89d	0.021930987
146	0x3daa2982	0.08308698
147	0xbd0e2b90	-0.034709513
148	0x3d913c7b	0.07091614
149	0xbd8fabf2	-0.07015218
150	0xbd23ddee	-0.04000657
151	0xbb26dbba	-0.0025460557
152	0xbd318916	-0.043343626
153	0x3c3037fc	0.010755535
154	0xbda4b2e7	-0.080419354
155	0x3cc3b618	0.02389054
156	0x3cb48d90	0.022040159
157	0x3d2143e2	0.03937138
158	0x3c7db947	0.015486068
159	0x3d0c80f4	0.034302667
160	0x3c9362b0	0.017991394
161	0x3d0addb2	0.03390283
162	0xbd6b614d	-0.05746584
163	0xbd441e73	-0.0478806
164	0xbd888e26	-0.06667738
165	0x3d0f7fba	0.03503392
166	0xbd26b6e8	-0.040701777
167	0xbb8222d2	-0.003971436
168	0xbd558300	-0.052126884
169	0xbc488517	-0.012238762
170	0x3c628d64	0.013827655
171	0xbc092c05	-0.0083723115
172	0x3d86eb3c	0.06587836
173	0x3da1af20	0.078947306
174	0x3da2bb1e	0.07945846
175	0x3d8c9794	0.06864849
176	0x3d38db77	0.045131173
177	0xbd31d74c	-0.043418214
178	0x3c85465c	0.016268902
179	0x3da47ee3	0.08032014
180	0xbc9bfae6	-0.019040536
181	0x3d8b2fdd	0.067962386
182	0x3ca6f9a5	0.020382712
183	0xbd69c1a6	-0.057069443
184	0x3b9ebfe8	0.0048446544
185	0x3db1422f	0.08655202
186	0x3d7c380d	0.06157689
187	0xbd9f1c45	-0.07769064
188	0x3d1cf2b8	0.038317412
189	0xbbc53353	-0.006018081
190	0x3c2a2209	0.010384091
191	0x3b6ea1f7	0.0036412457
192	0xbb4de132	-0.0031414744
193	0xbd063249	-0.0327628
194	0xbd448a65	-0.047983546
195	0xbd56f7bd	-0.052482355
196	0x3db9d807	0.09074407
197	0x3d97830d	0.07398043
198	0x3bd64399	0.00653882
199	0xbd838380	-0.06421566
200	0xbd127597	-0.035756674
201	0xbd013042	-0.031540163
202	0xbda33b22	-0.07970263
203	0xbbfb8d5f	-0.007676765
204	0xbcc0610f	-0.023483781
205	0xbd00fa30	-0.031488597
206	0x3d096311	0.033541743
207	0x3cfc4ba7	0.030797793
208	0xbd42e49a	-0.047581293
209	0xbd5eec73	-0.054424714
210	0xbd0df195	-0.03465422
211	0xbda6d546	-0.081461474
212	0x3d8943ba	0.06702371
213	0xbd36a129	-0.044587288
214	0x39a531f5	0.00031508473
215	0x3dac7546	0.08420806
216	0xbbb0079b	-0.0053720004
217	0xbc10b8b9	-0.008833104
218	0xbd3b8866	-0.045784377
219	0x3d3f3fed	0.046691824
220	0xbb6935da	-0.0035585077
221	0xbd805644	-0.06266454
222	0xbd95cde8	-0.07314664
223	0xbd6572e7	-0.056017783
224	0x3d389c77	0.04507109
225	0x3d8107f6	0.063003466
226	0x3da83e42	0.08215
227	0x3ccf9081	0.02533746
228	0xbcd67fb7	-0.026183946
229	0x3d283637	0.04106733
230	0x3db5d482	0.08878423
231	0xbccdf804	-0.025142677
232	0xbcad2940	-0.021137834
233	0x3d0ae8ee	0.033913545
234	0x3d9aa95e	0.075518355
235	0xbb9625e3	-0.004582153
236	0xbdae2e9d	-0.085049845
237	0x3d929a27	0.071583085
238	0xbc284476	-0.010270229
239	0xbd981cd9	-0.07427377
240	0x3d60a12e	0.054841213
241	0xbd047eec	-0.032347605
242	0xbd424fa0	-0.047439218
243	0x3caa8795	0.020816604
244	0x3d871a28	0.06596786
245	0x3d4f88b1	0.05066747
246	0xbc40423d	-0.011734542
247	0x3d407adc	0.046992168
248	0xbd3dfd23	-0.046383988
249	0x3bd20e1a	0.0064103724
250	0xbd21b6d2	-0.03948099
251	0x3da3c1c0	0.07995939
252	0xbd5bfed8	-0.053709835
253	0xbc9e2eb2	-0.019309375
254	0xbd025e86	-0.031828426
255	0xbd142f4f	-0.03617793

encoder.self_attn.out_proj.bias f4 [128]
0	0x3a45a4a8	0.00075394893
1	0xbb6c4fe9	-0.0036058372
2	0x3ba462f7	0.0050166803
3	0x3b13b4a1	0.0022538083
4	0xbb028d11	-0.0019920508
5	0xbaedd6df	-0.0018145702
6	0xbaa9ccb1	-0.001295468
7	0x3a9c92f0	0.0011945646
8	0xb9949cba	-0.0002834553
9	0xbb272488	-0.0025503952
10	0xba5c91b9	-0.00084140484
11	0x3af9720e	0.0019031183
12	0xba30b70e	-0.00067411445
13	0xba0244b9	-0.0004969347
14	0xbafd1d85	-0.0019311166
15	0xba21b0b5	-0.0006167994
16	0x3b40dcad	0.0029428408
17	0x38c8babe	9.5715266e-05
18	0x3895f83b	7.15111e-05
19	0x3abf77e4	0.0014607874
20	0x3b52bcc7	0.0032155977
21	0xbb5f3891	-0.0034060816
22	0xbb8b12ef	-0.0042442004
23	0x3a7de6b7	0.0009685563
24	0x3ae65daf	0.0017575527
25	0xbb1adb0c	-0.0023629097
26	0x3ab14b75	0.0013526516
27	0xbb84f6a5	-0.0040577226
28	0x3ad9c873	0.0016615525
29	0xba5f7cf9	-0.0008525397
30	0x3b90bf3b	0.0044173277
31	0x3b08a914	0.0020852732
32	0xb92502b5	-0.00015736635
33	0xbb8af0df	-0.00424014
34	0xba29806c	-0.0006465975
35	0x3a30f232	0.0006749957
36	0x385bc3a6	5.239588e-05
37	0xbb7f6d8d	-0.003897521
38	0xb9b1a0aa	-0.00033879775
39	0x3ad5880b	0.0016291154
40	0x3b08d928	0.0020881388
41	0x3a0804d1	0.0005188706
42	0xba0eadaa	-0.0005442748
43	0x3b39d69c	0.0028356677
44	0x3a6300de	0.0008659492
45	0xbb2141b8	-0.0024605822
46	0x3b4734c5	0.0030396443
47	0x3b00e14c	0.0019665537
48	0x3adde361	0.0016928726
49	0x3a2afdda	0.0006522812
50	0xb9ce7b1c	-0.00039383105
51	0xbad89586	-0.0016524054
52	0xbb2f1685	-0.0026716304
53	0xbb727b57	-0.0036999786
54	0x3a80d3c7	0.000982874
55	0xb95ef2f4	-0.00021262077
56	0xbaca1a53	-0.0015419222
57	0xb9d631dc	-0.0004085441
58	0x3a112aed	0.00055377075
59	0xbb063894	-0.00204805
60	0x390eea73	0.00013629514
61	0xbab8ee2a	-0.0014109064
62	0x3b604f02	0.003422678
63	0xb9082144	-0.00012982363
64	0xbb8321b3	-0.00400182
65	0x3ac2adfe	0.0014852879
66	0x3a634e33	0.00086710154
67	0x3b496559	0.0030730574
68	0x39c7b10f	0.00038088157
69	0x3aa42f68	0.0012526335
70	0x3b38612f	0.0028134098
71	0x3b9bd562	0.004755662
72	0x3a8428d1	0.0010082965
73	0x3b1487fc	0.002266406
74	0x39c00894	0.00036627485
75	0x3ba16653	0.004925528
76	0xbab58cd2	-0.0013851172
77	0xb8794668	-5.9431797e-05
78	0xba5ad4be	-0.0008347741
79	0x3b29c9e0	0.002590768
80	0x3c08dbb3	0.008353162
81	0xb94064a4	-0.00018348038
82	0xba06e2d3	-0.0005145494
83	0xb91ad53e	-0.00014766023
84	0xbb044a8a	-0.002018603
85	0xba075fd1	-0.0005164119
86	0xb954d094	-0.00020295597
87	0xba8a059d	-0.0010530237
88	0x3abb4ad5	0.001428927
89	0xb9168f75	-0.00014358557
90	0xbb67f55b	-0.0035394046
91	0x3b000ae4	0.0019537741
92	0x3a085309	0.00052003615
93	0x3b82cdd6	0.0039918227
94	0x3a9f6b19	0.0012162655
95	0xbb429d70	-0.002969589
96	0xbac242b1	-0.0014820901
97	0x3b8d9379	0.0043205586
98	0xbb82dcda	-0.0039936127
99	0xbac23077	-0.0014815469
100	0x3aa8c3cb	0.0012875734
101	0x3a53f489	0.000808545
102	0x3b08b71e	0.00208611
103	0x39fbeb76	0.00048049883
104	0xbac0669f	-0.0014679021
105	0x3a635593	0.00086721143
106	0xbb827d05	-0.0039821886
107	0x3b4bc2ce	0.0031091454
108	0x3b209c71	0.002450731
109	0x39954cf6	0.00028476835
110	0xbb1a9fa8	-0.0023593698
111	0xbb059e7b	-0.0020388651
112	0x3bb54e5d	0.0055330233
113	0xb9a7e6ac	-0.00032024586
114	0xba1b9d84	-0.00059362524
115	0xba75c9cd	-0.0009376079
116	0x3aa8b9a1	0.0012872705
117	0x3a9e2ade	0.0012067219
118	0x39c7d0f4	0.0003811192
119	0x3a97489a	0.0011542023
120	0x399e02ff	0.0003013834
121	0x3ab92b76	0.0014127332
122	0x3a05e70c	0.0005107976
123	0x3afac8a0	0.0019133277
124	0xba08fb8d	-0.0005225472
125	0xba1856ea	-0.0005811291
126	0xbb146c08	-0.00226474
127	0x3b417962	0.0029521813

encoder.linear1.weight f4 [128, 128]
0	0xbd92f6ed	-0.071760036
1	0xbaa2da73	-0.0012424722
2	0x3c733f40	0.014846623
3	0x3c26e751	0.010186986
4	0xbd8798c8	-0.066209376
5	0x3c92e1fe	0.017930027
6	0xbd55aaf5	-0.05216499
7	0xbd324576	-0.043523274
8	0xbb454968	-0.0030103568
9	0xbbd81fff	-0.006595611
10	0x3d1954b3	0.03743429
11	0x3daf8b5b	0.08571502
12	0x3d79632e	0.0608856
13	0x3b2bac04	0.0026195059
14	0x3d1697f6	0.036766015
15	0x3d0541cd	0.032533456
16	0xbcbfbc19	-0.023405122
17	0xbd16cd0a	-0.036816634
18	0xbdb2130b	-0.086950384
19	0x3d2d0672	0.042242475
20	0xbbe77f67	-0.007064748
21	0x3d50ec6c	0.05100672
22	0xbd3237bf	-0.043510195
23	0xbcb94faf	-0.022621004
24	0xbd413b9c	-0.04717599
25	0x3d593a89	0.05303434
26	0xbbe09a8d	-0.0068543614
27	0x3d3aaa25	0.04557242
28	0xbd5ee733	-0.054419708
29	0xbd993334	-0.07480469
30	0x3db5ec7b	0.08882996
31	0x3d40d6d3	0.047079872
32	0xbd214921	-0.03937638
33	0x3c97ccc0	0.01853025
34	0x3d8ef33a	0.069799855
35	0xbd0b2997	-0.03397521
36	0x3bf519ba	0.0074798735
37	0x3c4ede33	0.012626219
38	0x3d8e2824	0.0694125
39	0xbdb31a79	-0.08745284
40	0x3ca29f17	0.01985125
41	0xbda15d85	-0.078791656
42	0x3d82637b	0.06366631
43	0xbd37ad1b	-0.04484282
44	0xbd83c661	-0.06434322
45	0xbcdb8d69	-0.026800828
46	0xbd84c087	-0.06482034
47	0xbd3017c4	-0.042991415
48	0x3d9be776	0.07612507
49	0xbd16e088	-0.036835223
50	0xbd83737a	-0.0641851
51	0x3cb52cb5	0.022116045
52	0x3d6160d4	0.055023983
53	0xbd96daeb	-0.07365974
54	0xbd0aa743	-0.03385092
55	0x3d9ece9a	0.0775425
56	0x3c0bb2cb	0.008526514
57	0xbd1dde26	-0.038541935
58	0x3d087175	0.033311326
59	0x3d413d75	0.04717775
60	0xbd290c85	-0.041271705
61	0x3cadb28c	0.021203302
62	0x3d962bc6	0.07332568
63	0xbd91e24b	-0.0712324
64	0x3d702ba7	0.05863538
65	0xbc16fd52	-0.00921567
66	0x3dade2f0	0.084905505
67	0x3cd57c8c	0.026060365
68	0x3c54eb66	0.0129955765
69	0x3baea33c	0.0053295176
70	0x3da4a080	0.080384254
71	0x3d57c51f	0.052678224
72	0x3c401702	0.0117242355
73	0x3ca4be2d	0.020110214
74	0x3b9d5930	0.0048018917
75	0x3d5b038e	0.053470187
76	0x3da6dfc6	0.0814815
77	0xbd981b14	-0.0742704
78	0xbd0d36dd	-0.03447615
79	0x3d9201d5	0.07129256
80	0x3c8bf26a	0.017083365
81	0x3da23fcd	0.07922325
82	0x3d913279	0.07089705
83	0x3c4270cb	0.011867712
84	0x3cf8fb90	0.030393392
85	0x3d8eaf91	0.069670804
86	0x3877065f	5.8895323e-05
87	0xbd9eef50	-0.07760489
88	0x3d9e9116	0.07742517
89	0xbd98e3aa	-0.074652985
90	0x3ae94de4	0.0017799702
91	0x3d3ae0ae	0.045624427
92	0x3d4be533	0.04977913
93	0x3c80769f	0.015681563
94	0xbd6d0393	-0.057864737
95	0xbd131e1e	-0.035917394
96	0xbd8c8721	-0.06861711
97	0x3d9fdf58	0.07806271
98	0xbdaa55ff	-0.08317184
99	0xbd8d57da	-0.06901522
100	0x3d9e1e20	0.0772059
101	0xbd6a9072	-0.05726666
102	0xbd5cbde9	-0.05389205
103	0xbd824caa	-0.06362279
104	0x3c793de2	0.015212508
105	0x3d1a1957	0.037621822
106	0x3da5dfe8	0.08099347
107	0x3d866431	0.06562079
108	0xbd382ae3	-0.044962775
109	0x3d663404	0.05620195
110	0xbc9ff1e5	-0.019524524
111	0x3da90926	0.08253698
112	0xbc32db44	-0.010916535
113	0xbc05bc56	-0.008162579
114	0x3ccb128b	0.024789115
115	0x3d80fd43	0.06298306
116	0xbc85e299	-0.016343402
117	0xbbc2b675	-0.0059421607
118	0x3d193629	0.037405167
119	0x3d48a4f6	0.048985444
120	0x3d0bc198	0.034120172
121	0x3da0f418	0.07859057
122	0xbda2fbc1	-0.079581745
123	0x3d5cb398	0.05388221
124	0xbcb2891d	-0.021793896
125	0x3d8b7c42	0.0681081
126	0xbdaed844	-0.08537343
127	0xbd84f42e	-0.06491886
128	0xbd55e778	-0.0522227
129	0x3dae0d1a	0.08498593
130	0x3d85d0ae	0.06533943
131	0x3d9ad000	0.07559204
132	0x3d95fbd5	0.07323424
133	0xbc358588	-0.0110792
134	0x3d7766f2	0.06040091
135	0x3cdf8106	0.027283203
136	0xbda2685d	-0.07930062
137	0x3c11aee7	0.008891798
138	0xbda9571a	-0.082685664
139	0x3d6d2726	0.057898663
140	0xbcf9ab38	-0.030477151
141	0x3d89d3d3	0.067298554
142	0xbd4c2250	-0.04983741
143	0x3d7782ab	0.06042735
144	0x3dbcbbf6	0.09215538
145	0xbc0cfc0c	-0.0086050145
146	0x3d88344e	0.06650601
147	0x3ce4c0d6	0.027923983
148	0xbbadb359	-0.005300921
149	0xbd3ae439	-0.045627806
150	0xbd891f05	-0.0669537
151	0x3d8610ee	0.06546198
152	0x3d187aef	0.037226614
153	0xbd5d6591	-0.05405194
154	0xbd82a87a	-0.063797906
155	0x3b8e2a93	0.0043385713
156	0x3c863703	0.016383654
157	0xbd382599	-0.04495773
158	0x3c51df4d	0.012809587
159	0x3cf96c5f	0.030447183
160	0xbd1ff13b	-0.039048415
161	0x3d6101e6	0.05493345
162	0xbcd03a14	-0.025418319
163	0xbd403c66	-0.0469326
164	0x3da4d6bb	0.08048769
165	0xbc0d52e4	-0.00862572
166	0x3d0030e3	0.031296622
167	0xbd3f608d	-0.046722937
168	0x3d45adbb	0.048261385
169	0xbd97b501	-0.07407571
170	0x3bfd25eb	0.0077254674
171	0xbd9b0846	-0.075699374
172	0x3d21c682	0.039495952
173	0xbd896f4b	-0.067106806
174	0x3d566a1b	0.052347284
175	0x3d6b6f6e	0.057479315
176	0xbcda0afe	-0.02661657
177	0x3da434aa	0.080178574
178	0xbdaaae0d	-0.08333979
179	0xbcd3a036	-0.02583323
180	0x3d56f4d7	0.05247959
181	0x3d552a8f	0.05204254
182	0x3d9baf91	0.07601846
183	0x3cca8069	0.024719434
184	0x3d913296	0.070897266
185	0x3d1c280e	0.038124137
186	0xbd4ce7c2	-0.05002571
187	0x3d69313b	0.056931715
188	0xbda2ebd3	-0.07955136
189	0x3d996aa6	0.07491045
190	0xbd4c8eda	-0.04994092
191	0xbdb506e4	-0.08839205
192	0x3d7add97	0.06124648
193	0xbd7cd8d8	-0.061730236
194	0xbdac994a	-0.08427675
195	0x3d764ff5	0.060134847
196	0xbd8a8086	-0.06762795
197	0xbda46383	-0.08026793
198	0x3d67063e	0.056402437
199	0xbdb1b8aa	-0.086778
200	0xbb8f0092	-0.0043640817
201	0x3d3486e9	0.044073973
202	0x3ca86d7a	0.020560015
203	0x3d5a32ba	0.053271033
204	0x3c05fdb9	0.008178168
205	0x3da1472c	0.07874903
206	0xbcc99752	-0.024608288
207	0x3db4f35f	0.08835482
208	0x3d7792c9	0.06044272
209	0xbcd7e9dd	-0.026356632
210	0x3ced2d29	0.028952198
211	0xbcf041d1	-0.029328259
212	0x3d0ca635	0.034338195
213	0xbd958f69	-0.07302744
214	0x3d394dee	0.045240335
215	0xbd32fad7	-0.04369625
216	0xbd8b2fdf	-0.0679624
217	0x3d0fb90c	0.035088584
218	0xbc0e8b77	-0.008700243
219	0xbdb22e2b	-0.08700212
220	0x3d199907	0.037499454
221	0x3d1c6c15	0.038189013
222	0xbd877c80	-0.06615543
223	0x3d9e25ad	0.0772203
224	0x3b7e9d87	0.0038851218
225	0x3bf3647b	0.0074277497
226	0x3c91aba5	0.017782042
227	0xbd89918c	-0.06717214
228	0xbce519be	-0.027966376
229	0x3d4abb9e	0.049495332
230	0xbd4220df	-0.04739463
231	0xbd82b30d	-0.063818075
232	0xbc9f7121	-0.019463124
233	0xbda3e6f5	-0.08003036
234	0x3c5bb71e	0.013410358
235	0x3cf56c82	0.029958967
236	0xbdb5de5a	-0.08880301
237	0x3cc65975	0.024212578
238	0xbd076a02	-0.03306008
239	0xbd2e3af7	-0.042536702
240	0x3d7eda34	0.062219813
241	0xbc6d6caf	-0.014491244
242	0x3d06e33e	0.03293156
243	0xbd138b4d	-0.03602152
244	0xbc5accf1	-0.013354526
245	0x3ce53372	0.027978633
246	0xbd6afa1b	-0.057367425
247	0xbda1c6a9	-0.078992195
248	0xbca2b3c8	-0.019861117
249	0xbd3f3903	-0.04668523
250	0x3d9b82ec	0.07593331
251	0x3da27e61	0.07934261
252	0x3daa5db5	0.083186544
253	0xbd8ed58a	-0.06974323
254	0xbc6b906b	-0.014377694
255	0x3d8532dc	0.06503841
